,Epoch,TrainLoss,TestLoss,model,criterion,optimizer,commodity_name
0,1,0.6987042427062988,,"RNN(
  (rnn): LSTM(8, 3, num_layers=2, batch_first=True, dropout=0.2)
  (fc): Linear(in_features=3, out_features=1, bias=True)
)",BCEWithLogitsLoss(),"Adam (
Parameter Group 0
    amsgrad: False
    betas: (0.9, 0.999)
    eps: 1e-08
    lr: 0.01
    weight_decay: 0
)",Oats
1,2,,,"RNN(
  (rnn): LSTM(8, 3, num_layers=2, batch_first=True, dropout=0.2)
  (fc): Linear(in_features=3, out_features=1, bias=True)
)",BCEWithLogitsLoss(),"Adam (
Parameter Group 0
    amsgrad: False
    betas: (0.9, 0.999)
    eps: 1e-08
    lr: 0.01
    weight_decay: 0
)",Oats
2,3,,,"RNN(
  (rnn): LSTM(8, 3, num_layers=2, batch_first=True, dropout=0.2)
  (fc): Linear(in_features=3, out_features=1, bias=True)
)",BCEWithLogitsLoss(),"Adam (
Parameter Group 0
    amsgrad: False
    betas: (0.9, 0.999)
    eps: 1e-08
    lr: 0.01
    weight_decay: 0
)",Oats
3,4,,,"RNN(
  (rnn): LSTM(8, 3, num_layers=2, batch_first=True, dropout=0.2)
  (fc): Linear(in_features=3, out_features=1, bias=True)
)",BCEWithLogitsLoss(),"Adam (
Parameter Group 0
    amsgrad: False
    betas: (0.9, 0.999)
    eps: 1e-08
    lr: 0.01
    weight_decay: 0
)",Oats
4,5,,,"RNN(
  (rnn): LSTM(8, 3, num_layers=2, batch_first=True, dropout=0.2)
  (fc): Linear(in_features=3, out_features=1, bias=True)
)",BCEWithLogitsLoss(),"Adam (
Parameter Group 0
    amsgrad: False
    betas: (0.9, 0.999)
    eps: 1e-08
    lr: 0.01
    weight_decay: 0
)",Oats
5,6,,,"RNN(
  (rnn): LSTM(8, 3, num_layers=2, batch_first=True, dropout=0.2)
  (fc): Linear(in_features=3, out_features=1, bias=True)
)",BCEWithLogitsLoss(),"Adam (
Parameter Group 0
    amsgrad: False
    betas: (0.9, 0.999)
    eps: 1e-08
    lr: 0.01
    weight_decay: 0
)",Oats
6,7,,,"RNN(
  (rnn): LSTM(8, 3, num_layers=2, batch_first=True, dropout=0.2)
  (fc): Linear(in_features=3, out_features=1, bias=True)
)",BCEWithLogitsLoss(),"Adam (
Parameter Group 0
    amsgrad: False
    betas: (0.9, 0.999)
    eps: 1e-08
    lr: 0.01
    weight_decay: 0
)",Oats
7,8,,,"RNN(
  (rnn): LSTM(8, 3, num_layers=2, batch_first=True, dropout=0.2)
  (fc): Linear(in_features=3, out_features=1, bias=True)
)",BCEWithLogitsLoss(),"Adam (
Parameter Group 0
    amsgrad: False
    betas: (0.9, 0.999)
    eps: 1e-08
    lr: 0.01
    weight_decay: 0
)",Oats
8,9,,,"RNN(
  (rnn): LSTM(8, 3, num_layers=2, batch_first=True, dropout=0.2)
  (fc): Linear(in_features=3, out_features=1, bias=True)
)",BCEWithLogitsLoss(),"Adam (
Parameter Group 0
    amsgrad: False
    betas: (0.9, 0.999)
    eps: 1e-08
    lr: 0.01
    weight_decay: 0
)",Oats
9,10,,,"RNN(
  (rnn): LSTM(8, 3, num_layers=2, batch_first=True, dropout=0.2)
  (fc): Linear(in_features=3, out_features=1, bias=True)
)",BCEWithLogitsLoss(),"Adam (
Parameter Group 0
    amsgrad: False
    betas: (0.9, 0.999)
    eps: 1e-08
    lr: 0.01
    weight_decay: 0
)",Oats
10,11,,,"RNN(
  (rnn): LSTM(8, 3, num_layers=2, batch_first=True, dropout=0.2)
  (fc): Linear(in_features=3, out_features=1, bias=True)
)",BCEWithLogitsLoss(),"Adam (
Parameter Group 0
    amsgrad: False
    betas: (0.9, 0.999)
    eps: 1e-08
    lr: 0.01
    weight_decay: 0
)",Oats
11,12,,,"RNN(
  (rnn): LSTM(8, 3, num_layers=2, batch_first=True, dropout=0.2)
  (fc): Linear(in_features=3, out_features=1, bias=True)
)",BCEWithLogitsLoss(),"Adam (
Parameter Group 0
    amsgrad: False
    betas: (0.9, 0.999)
    eps: 1e-08
    lr: 0.01
    weight_decay: 0
)",Oats
12,13,,,"RNN(
  (rnn): LSTM(8, 3, num_layers=2, batch_first=True, dropout=0.2)
  (fc): Linear(in_features=3, out_features=1, bias=True)
)",BCEWithLogitsLoss(),"Adam (
Parameter Group 0
    amsgrad: False
    betas: (0.9, 0.999)
    eps: 1e-08
    lr: 0.01
    weight_decay: 0
)",Oats
13,14,,,"RNN(
  (rnn): LSTM(8, 3, num_layers=2, batch_first=True, dropout=0.2)
  (fc): Linear(in_features=3, out_features=1, bias=True)
)",BCEWithLogitsLoss(),"Adam (
Parameter Group 0
    amsgrad: False
    betas: (0.9, 0.999)
    eps: 1e-08
    lr: 0.01
    weight_decay: 0
)",Oats
14,15,,,"RNN(
  (rnn): LSTM(8, 3, num_layers=2, batch_first=True, dropout=0.2)
  (fc): Linear(in_features=3, out_features=1, bias=True)
)",BCEWithLogitsLoss(),"Adam (
Parameter Group 0
    amsgrad: False
    betas: (0.9, 0.999)
    eps: 1e-08
    lr: 0.01
    weight_decay: 0
)",Oats
15,16,,,"RNN(
  (rnn): LSTM(8, 3, num_layers=2, batch_first=True, dropout=0.2)
  (fc): Linear(in_features=3, out_features=1, bias=True)
)",BCEWithLogitsLoss(),"Adam (
Parameter Group 0
    amsgrad: False
    betas: (0.9, 0.999)
    eps: 1e-08
    lr: 0.01
    weight_decay: 0
)",Oats
16,17,,,"RNN(
  (rnn): LSTM(8, 3, num_layers=2, batch_first=True, dropout=0.2)
  (fc): Linear(in_features=3, out_features=1, bias=True)
)",BCEWithLogitsLoss(),"Adam (
Parameter Group 0
    amsgrad: False
    betas: (0.9, 0.999)
    eps: 1e-08
    lr: 0.01
    weight_decay: 0
)",Oats
17,18,,,"RNN(
  (rnn): LSTM(8, 3, num_layers=2, batch_first=True, dropout=0.2)
  (fc): Linear(in_features=3, out_features=1, bias=True)
)",BCEWithLogitsLoss(),"Adam (
Parameter Group 0
    amsgrad: False
    betas: (0.9, 0.999)
    eps: 1e-08
    lr: 0.01
    weight_decay: 0
)",Oats
18,19,,,"RNN(
  (rnn): LSTM(8, 3, num_layers=2, batch_first=True, dropout=0.2)
  (fc): Linear(in_features=3, out_features=1, bias=True)
)",BCEWithLogitsLoss(),"Adam (
Parameter Group 0
    amsgrad: False
    betas: (0.9, 0.999)
    eps: 1e-08
    lr: 0.01
    weight_decay: 0
)",Oats
19,20,,,"RNN(
  (rnn): LSTM(8, 3, num_layers=2, batch_first=True, dropout=0.2)
  (fc): Linear(in_features=3, out_features=1, bias=True)
)",BCEWithLogitsLoss(),"Adam (
Parameter Group 0
    amsgrad: False
    betas: (0.9, 0.999)
    eps: 1e-08
    lr: 0.01
    weight_decay: 0
)",Oats
20,21,,,"RNN(
  (rnn): LSTM(8, 3, num_layers=2, batch_first=True, dropout=0.2)
  (fc): Linear(in_features=3, out_features=1, bias=True)
)",BCEWithLogitsLoss(),"Adam (
Parameter Group 0
    amsgrad: False
    betas: (0.9, 0.999)
    eps: 1e-08
    lr: 0.01
    weight_decay: 0
)",Oats
21,22,,,"RNN(
  (rnn): LSTM(8, 3, num_layers=2, batch_first=True, dropout=0.2)
  (fc): Linear(in_features=3, out_features=1, bias=True)
)",BCEWithLogitsLoss(),"Adam (
Parameter Group 0
    amsgrad: False
    betas: (0.9, 0.999)
    eps: 1e-08
    lr: 0.01
    weight_decay: 0
)",Oats
22,23,,,"RNN(
  (rnn): LSTM(8, 3, num_layers=2, batch_first=True, dropout=0.2)
  (fc): Linear(in_features=3, out_features=1, bias=True)
)",BCEWithLogitsLoss(),"Adam (
Parameter Group 0
    amsgrad: False
    betas: (0.9, 0.999)
    eps: 1e-08
    lr: 0.01
    weight_decay: 0
)",Oats
23,24,,,"RNN(
  (rnn): LSTM(8, 3, num_layers=2, batch_first=True, dropout=0.2)
  (fc): Linear(in_features=3, out_features=1, bias=True)
)",BCEWithLogitsLoss(),"Adam (
Parameter Group 0
    amsgrad: False
    betas: (0.9, 0.999)
    eps: 1e-08
    lr: 0.01
    weight_decay: 0
)",Oats
24,25,,,"RNN(
  (rnn): LSTM(8, 3, num_layers=2, batch_first=True, dropout=0.2)
  (fc): Linear(in_features=3, out_features=1, bias=True)
)",BCEWithLogitsLoss(),"Adam (
Parameter Group 0
    amsgrad: False
    betas: (0.9, 0.999)
    eps: 1e-08
    lr: 0.01
    weight_decay: 0
)",Oats
25,26,,,"RNN(
  (rnn): LSTM(8, 3, num_layers=2, batch_first=True, dropout=0.2)
  (fc): Linear(in_features=3, out_features=1, bias=True)
)",BCEWithLogitsLoss(),"Adam (
Parameter Group 0
    amsgrad: False
    betas: (0.9, 0.999)
    eps: 1e-08
    lr: 0.01
    weight_decay: 0
)",Oats
26,27,,,"RNN(
  (rnn): LSTM(8, 3, num_layers=2, batch_first=True, dropout=0.2)
  (fc): Linear(in_features=3, out_features=1, bias=True)
)",BCEWithLogitsLoss(),"Adam (
Parameter Group 0
    amsgrad: False
    betas: (0.9, 0.999)
    eps: 1e-08
    lr: 0.01
    weight_decay: 0
)",Oats
27,28,,,"RNN(
  (rnn): LSTM(8, 3, num_layers=2, batch_first=True, dropout=0.2)
  (fc): Linear(in_features=3, out_features=1, bias=True)
)",BCEWithLogitsLoss(),"Adam (
Parameter Group 0
    amsgrad: False
    betas: (0.9, 0.999)
    eps: 1e-08
    lr: 0.01
    weight_decay: 0
)",Oats
28,29,,,"RNN(
  (rnn): LSTM(8, 3, num_layers=2, batch_first=True, dropout=0.2)
  (fc): Linear(in_features=3, out_features=1, bias=True)
)",BCEWithLogitsLoss(),"Adam (
Parameter Group 0
    amsgrad: False
    betas: (0.9, 0.999)
    eps: 1e-08
    lr: 0.01
    weight_decay: 0
)",Oats
29,30,,,"RNN(
  (rnn): LSTM(8, 3, num_layers=2, batch_first=True, dropout=0.2)
  (fc): Linear(in_features=3, out_features=1, bias=True)
)",BCEWithLogitsLoss(),"Adam (
Parameter Group 0
    amsgrad: False
    betas: (0.9, 0.999)
    eps: 1e-08
    lr: 0.01
    weight_decay: 0
)",Oats
30,31,,,"RNN(
  (rnn): LSTM(8, 3, num_layers=2, batch_first=True, dropout=0.2)
  (fc): Linear(in_features=3, out_features=1, bias=True)
)",BCEWithLogitsLoss(),"Adam (
Parameter Group 0
    amsgrad: False
    betas: (0.9, 0.999)
    eps: 1e-08
    lr: 0.01
    weight_decay: 0
)",Oats
31,32,,,"RNN(
  (rnn): LSTM(8, 3, num_layers=2, batch_first=True, dropout=0.2)
  (fc): Linear(in_features=3, out_features=1, bias=True)
)",BCEWithLogitsLoss(),"Adam (
Parameter Group 0
    amsgrad: False
    betas: (0.9, 0.999)
    eps: 1e-08
    lr: 0.01
    weight_decay: 0
)",Oats
32,33,,,"RNN(
  (rnn): LSTM(8, 3, num_layers=2, batch_first=True, dropout=0.2)
  (fc): Linear(in_features=3, out_features=1, bias=True)
)",BCEWithLogitsLoss(),"Adam (
Parameter Group 0
    amsgrad: False
    betas: (0.9, 0.999)
    eps: 1e-08
    lr: 0.01
    weight_decay: 0
)",Oats
33,34,,,"RNN(
  (rnn): LSTM(8, 3, num_layers=2, batch_first=True, dropout=0.2)
  (fc): Linear(in_features=3, out_features=1, bias=True)
)",BCEWithLogitsLoss(),"Adam (
Parameter Group 0
    amsgrad: False
    betas: (0.9, 0.999)
    eps: 1e-08
    lr: 0.01
    weight_decay: 0
)",Oats
34,35,,,"RNN(
  (rnn): LSTM(8, 3, num_layers=2, batch_first=True, dropout=0.2)
  (fc): Linear(in_features=3, out_features=1, bias=True)
)",BCEWithLogitsLoss(),"Adam (
Parameter Group 0
    amsgrad: False
    betas: (0.9, 0.999)
    eps: 1e-08
    lr: 0.01
    weight_decay: 0
)",Oats
35,36,,,"RNN(
  (rnn): LSTM(8, 3, num_layers=2, batch_first=True, dropout=0.2)
  (fc): Linear(in_features=3, out_features=1, bias=True)
)",BCEWithLogitsLoss(),"Adam (
Parameter Group 0
    amsgrad: False
    betas: (0.9, 0.999)
    eps: 1e-08
    lr: 0.01
    weight_decay: 0
)",Oats
36,37,,,"RNN(
  (rnn): LSTM(8, 3, num_layers=2, batch_first=True, dropout=0.2)
  (fc): Linear(in_features=3, out_features=1, bias=True)
)",BCEWithLogitsLoss(),"Adam (
Parameter Group 0
    amsgrad: False
    betas: (0.9, 0.999)
    eps: 1e-08
    lr: 0.01
    weight_decay: 0
)",Oats
37,38,,,"RNN(
  (rnn): LSTM(8, 3, num_layers=2, batch_first=True, dropout=0.2)
  (fc): Linear(in_features=3, out_features=1, bias=True)
)",BCEWithLogitsLoss(),"Adam (
Parameter Group 0
    amsgrad: False
    betas: (0.9, 0.999)
    eps: 1e-08
    lr: 0.01
    weight_decay: 0
)",Oats
38,39,,,"RNN(
  (rnn): LSTM(8, 3, num_layers=2, batch_first=True, dropout=0.2)
  (fc): Linear(in_features=3, out_features=1, bias=True)
)",BCEWithLogitsLoss(),"Adam (
Parameter Group 0
    amsgrad: False
    betas: (0.9, 0.999)
    eps: 1e-08
    lr: 0.01
    weight_decay: 0
)",Oats
39,40,,,"RNN(
  (rnn): LSTM(8, 3, num_layers=2, batch_first=True, dropout=0.2)
  (fc): Linear(in_features=3, out_features=1, bias=True)
)",BCEWithLogitsLoss(),"Adam (
Parameter Group 0
    amsgrad: False
    betas: (0.9, 0.999)
    eps: 1e-08
    lr: 0.01
    weight_decay: 0
)",Oats
40,41,,,"RNN(
  (rnn): LSTM(8, 3, num_layers=2, batch_first=True, dropout=0.2)
  (fc): Linear(in_features=3, out_features=1, bias=True)
)",BCEWithLogitsLoss(),"Adam (
Parameter Group 0
    amsgrad: False
    betas: (0.9, 0.999)
    eps: 1e-08
    lr: 0.01
    weight_decay: 0
)",Oats
41,42,,,"RNN(
  (rnn): LSTM(8, 3, num_layers=2, batch_first=True, dropout=0.2)
  (fc): Linear(in_features=3, out_features=1, bias=True)
)",BCEWithLogitsLoss(),"Adam (
Parameter Group 0
    amsgrad: False
    betas: (0.9, 0.999)
    eps: 1e-08
    lr: 0.01
    weight_decay: 0
)",Oats
42,43,,,"RNN(
  (rnn): LSTM(8, 3, num_layers=2, batch_first=True, dropout=0.2)
  (fc): Linear(in_features=3, out_features=1, bias=True)
)",BCEWithLogitsLoss(),"Adam (
Parameter Group 0
    amsgrad: False
    betas: (0.9, 0.999)
    eps: 1e-08
    lr: 0.01
    weight_decay: 0
)",Oats
43,44,,,"RNN(
  (rnn): LSTM(8, 3, num_layers=2, batch_first=True, dropout=0.2)
  (fc): Linear(in_features=3, out_features=1, bias=True)
)",BCEWithLogitsLoss(),"Adam (
Parameter Group 0
    amsgrad: False
    betas: (0.9, 0.999)
    eps: 1e-08
    lr: 0.01
    weight_decay: 0
)",Oats
44,45,,,"RNN(
  (rnn): LSTM(8, 3, num_layers=2, batch_first=True, dropout=0.2)
  (fc): Linear(in_features=3, out_features=1, bias=True)
)",BCEWithLogitsLoss(),"Adam (
Parameter Group 0
    amsgrad: False
    betas: (0.9, 0.999)
    eps: 1e-08
    lr: 0.01
    weight_decay: 0
)",Oats
45,46,,,"RNN(
  (rnn): LSTM(8, 3, num_layers=2, batch_first=True, dropout=0.2)
  (fc): Linear(in_features=3, out_features=1, bias=True)
)",BCEWithLogitsLoss(),"Adam (
Parameter Group 0
    amsgrad: False
    betas: (0.9, 0.999)
    eps: 1e-08
    lr: 0.01
    weight_decay: 0
)",Oats
46,47,,,"RNN(
  (rnn): LSTM(8, 3, num_layers=2, batch_first=True, dropout=0.2)
  (fc): Linear(in_features=3, out_features=1, bias=True)
)",BCEWithLogitsLoss(),"Adam (
Parameter Group 0
    amsgrad: False
    betas: (0.9, 0.999)
    eps: 1e-08
    lr: 0.01
    weight_decay: 0
)",Oats
47,48,,,"RNN(
  (rnn): LSTM(8, 3, num_layers=2, batch_first=True, dropout=0.2)
  (fc): Linear(in_features=3, out_features=1, bias=True)
)",BCEWithLogitsLoss(),"Adam (
Parameter Group 0
    amsgrad: False
    betas: (0.9, 0.999)
    eps: 1e-08
    lr: 0.01
    weight_decay: 0
)",Oats
48,49,,,"RNN(
  (rnn): LSTM(8, 3, num_layers=2, batch_first=True, dropout=0.2)
  (fc): Linear(in_features=3, out_features=1, bias=True)
)",BCEWithLogitsLoss(),"Adam (
Parameter Group 0
    amsgrad: False
    betas: (0.9, 0.999)
    eps: 1e-08
    lr: 0.01
    weight_decay: 0
)",Oats
49,50,,,"RNN(
  (rnn): LSTM(8, 3, num_layers=2, batch_first=True, dropout=0.2)
  (fc): Linear(in_features=3, out_features=1, bias=True)
)",BCEWithLogitsLoss(),"Adam (
Parameter Group 0
    amsgrad: False
    betas: (0.9, 0.999)
    eps: 1e-08
    lr: 0.01
    weight_decay: 0
)",Oats
50,51,,,"RNN(
  (rnn): LSTM(8, 3, num_layers=2, batch_first=True, dropout=0.2)
  (fc): Linear(in_features=3, out_features=1, bias=True)
)",BCEWithLogitsLoss(),"Adam (
Parameter Group 0
    amsgrad: False
    betas: (0.9, 0.999)
    eps: 1e-08
    lr: 0.01
    weight_decay: 0
)",Oats
51,52,,,"RNN(
  (rnn): LSTM(8, 3, num_layers=2, batch_first=True, dropout=0.2)
  (fc): Linear(in_features=3, out_features=1, bias=True)
)",BCEWithLogitsLoss(),"Adam (
Parameter Group 0
    amsgrad: False
    betas: (0.9, 0.999)
    eps: 1e-08
    lr: 0.01
    weight_decay: 0
)",Oats
52,53,,,"RNN(
  (rnn): LSTM(8, 3, num_layers=2, batch_first=True, dropout=0.2)
  (fc): Linear(in_features=3, out_features=1, bias=True)
)",BCEWithLogitsLoss(),"Adam (
Parameter Group 0
    amsgrad: False
    betas: (0.9, 0.999)
    eps: 1e-08
    lr: 0.01
    weight_decay: 0
)",Oats
53,54,,,"RNN(
  (rnn): LSTM(8, 3, num_layers=2, batch_first=True, dropout=0.2)
  (fc): Linear(in_features=3, out_features=1, bias=True)
)",BCEWithLogitsLoss(),"Adam (
Parameter Group 0
    amsgrad: False
    betas: (0.9, 0.999)
    eps: 1e-08
    lr: 0.01
    weight_decay: 0
)",Oats
54,55,,,"RNN(
  (rnn): LSTM(8, 3, num_layers=2, batch_first=True, dropout=0.2)
  (fc): Linear(in_features=3, out_features=1, bias=True)
)",BCEWithLogitsLoss(),"Adam (
Parameter Group 0
    amsgrad: False
    betas: (0.9, 0.999)
    eps: 1e-08
    lr: 0.01
    weight_decay: 0
)",Oats
55,56,,,"RNN(
  (rnn): LSTM(8, 3, num_layers=2, batch_first=True, dropout=0.2)
  (fc): Linear(in_features=3, out_features=1, bias=True)
)",BCEWithLogitsLoss(),"Adam (
Parameter Group 0
    amsgrad: False
    betas: (0.9, 0.999)
    eps: 1e-08
    lr: 0.01
    weight_decay: 0
)",Oats
56,57,,,"RNN(
  (rnn): LSTM(8, 3, num_layers=2, batch_first=True, dropout=0.2)
  (fc): Linear(in_features=3, out_features=1, bias=True)
)",BCEWithLogitsLoss(),"Adam (
Parameter Group 0
    amsgrad: False
    betas: (0.9, 0.999)
    eps: 1e-08
    lr: 0.01
    weight_decay: 0
)",Oats
57,58,,,"RNN(
  (rnn): LSTM(8, 3, num_layers=2, batch_first=True, dropout=0.2)
  (fc): Linear(in_features=3, out_features=1, bias=True)
)",BCEWithLogitsLoss(),"Adam (
Parameter Group 0
    amsgrad: False
    betas: (0.9, 0.999)
    eps: 1e-08
    lr: 0.01
    weight_decay: 0
)",Oats
58,59,,,"RNN(
  (rnn): LSTM(8, 3, num_layers=2, batch_first=True, dropout=0.2)
  (fc): Linear(in_features=3, out_features=1, bias=True)
)",BCEWithLogitsLoss(),"Adam (
Parameter Group 0
    amsgrad: False
    betas: (0.9, 0.999)
    eps: 1e-08
    lr: 0.01
    weight_decay: 0
)",Oats
59,60,,,"RNN(
  (rnn): LSTM(8, 3, num_layers=2, batch_first=True, dropout=0.2)
  (fc): Linear(in_features=3, out_features=1, bias=True)
)",BCEWithLogitsLoss(),"Adam (
Parameter Group 0
    amsgrad: False
    betas: (0.9, 0.999)
    eps: 1e-08
    lr: 0.01
    weight_decay: 0
)",Oats
60,61,,,"RNN(
  (rnn): LSTM(8, 3, num_layers=2, batch_first=True, dropout=0.2)
  (fc): Linear(in_features=3, out_features=1, bias=True)
)",BCEWithLogitsLoss(),"Adam (
Parameter Group 0
    amsgrad: False
    betas: (0.9, 0.999)
    eps: 1e-08
    lr: 0.01
    weight_decay: 0
)",Oats
61,62,,,"RNN(
  (rnn): LSTM(8, 3, num_layers=2, batch_first=True, dropout=0.2)
  (fc): Linear(in_features=3, out_features=1, bias=True)
)",BCEWithLogitsLoss(),"Adam (
Parameter Group 0
    amsgrad: False
    betas: (0.9, 0.999)
    eps: 1e-08
    lr: 0.01
    weight_decay: 0
)",Oats
62,63,,,"RNN(
  (rnn): LSTM(8, 3, num_layers=2, batch_first=True, dropout=0.2)
  (fc): Linear(in_features=3, out_features=1, bias=True)
)",BCEWithLogitsLoss(),"Adam (
Parameter Group 0
    amsgrad: False
    betas: (0.9, 0.999)
    eps: 1e-08
    lr: 0.01
    weight_decay: 0
)",Oats
63,64,,,"RNN(
  (rnn): LSTM(8, 3, num_layers=2, batch_first=True, dropout=0.2)
  (fc): Linear(in_features=3, out_features=1, bias=True)
)",BCEWithLogitsLoss(),"Adam (
Parameter Group 0
    amsgrad: False
    betas: (0.9, 0.999)
    eps: 1e-08
    lr: 0.01
    weight_decay: 0
)",Oats
64,65,,,"RNN(
  (rnn): LSTM(8, 3, num_layers=2, batch_first=True, dropout=0.2)
  (fc): Linear(in_features=3, out_features=1, bias=True)
)",BCEWithLogitsLoss(),"Adam (
Parameter Group 0
    amsgrad: False
    betas: (0.9, 0.999)
    eps: 1e-08
    lr: 0.01
    weight_decay: 0
)",Oats
65,66,,,"RNN(
  (rnn): LSTM(8, 3, num_layers=2, batch_first=True, dropout=0.2)
  (fc): Linear(in_features=3, out_features=1, bias=True)
)",BCEWithLogitsLoss(),"Adam (
Parameter Group 0
    amsgrad: False
    betas: (0.9, 0.999)
    eps: 1e-08
    lr: 0.01
    weight_decay: 0
)",Oats
66,67,,,"RNN(
  (rnn): LSTM(8, 3, num_layers=2, batch_first=True, dropout=0.2)
  (fc): Linear(in_features=3, out_features=1, bias=True)
)",BCEWithLogitsLoss(),"Adam (
Parameter Group 0
    amsgrad: False
    betas: (0.9, 0.999)
    eps: 1e-08
    lr: 0.01
    weight_decay: 0
)",Oats
67,68,,,"RNN(
  (rnn): LSTM(8, 3, num_layers=2, batch_first=True, dropout=0.2)
  (fc): Linear(in_features=3, out_features=1, bias=True)
)",BCEWithLogitsLoss(),"Adam (
Parameter Group 0
    amsgrad: False
    betas: (0.9, 0.999)
    eps: 1e-08
    lr: 0.01
    weight_decay: 0
)",Oats
68,69,,,"RNN(
  (rnn): LSTM(8, 3, num_layers=2, batch_first=True, dropout=0.2)
  (fc): Linear(in_features=3, out_features=1, bias=True)
)",BCEWithLogitsLoss(),"Adam (
Parameter Group 0
    amsgrad: False
    betas: (0.9, 0.999)
    eps: 1e-08
    lr: 0.01
    weight_decay: 0
)",Oats
69,70,,,"RNN(
  (rnn): LSTM(8, 3, num_layers=2, batch_first=True, dropout=0.2)
  (fc): Linear(in_features=3, out_features=1, bias=True)
)",BCEWithLogitsLoss(),"Adam (
Parameter Group 0
    amsgrad: False
    betas: (0.9, 0.999)
    eps: 1e-08
    lr: 0.01
    weight_decay: 0
)",Oats
70,71,,,"RNN(
  (rnn): LSTM(8, 3, num_layers=2, batch_first=True, dropout=0.2)
  (fc): Linear(in_features=3, out_features=1, bias=True)
)",BCEWithLogitsLoss(),"Adam (
Parameter Group 0
    amsgrad: False
    betas: (0.9, 0.999)
    eps: 1e-08
    lr: 0.01
    weight_decay: 0
)",Oats
71,72,,,"RNN(
  (rnn): LSTM(8, 3, num_layers=2, batch_first=True, dropout=0.2)
  (fc): Linear(in_features=3, out_features=1, bias=True)
)",BCEWithLogitsLoss(),"Adam (
Parameter Group 0
    amsgrad: False
    betas: (0.9, 0.999)
    eps: 1e-08
    lr: 0.01
    weight_decay: 0
)",Oats
72,73,,,"RNN(
  (rnn): LSTM(8, 3, num_layers=2, batch_first=True, dropout=0.2)
  (fc): Linear(in_features=3, out_features=1, bias=True)
)",BCEWithLogitsLoss(),"Adam (
Parameter Group 0
    amsgrad: False
    betas: (0.9, 0.999)
    eps: 1e-08
    lr: 0.01
    weight_decay: 0
)",Oats
73,74,,,"RNN(
  (rnn): LSTM(8, 3, num_layers=2, batch_first=True, dropout=0.2)
  (fc): Linear(in_features=3, out_features=1, bias=True)
)",BCEWithLogitsLoss(),"Adam (
Parameter Group 0
    amsgrad: False
    betas: (0.9, 0.999)
    eps: 1e-08
    lr: 0.01
    weight_decay: 0
)",Oats
74,75,,,"RNN(
  (rnn): LSTM(8, 3, num_layers=2, batch_first=True, dropout=0.2)
  (fc): Linear(in_features=3, out_features=1, bias=True)
)",BCEWithLogitsLoss(),"Adam (
Parameter Group 0
    amsgrad: False
    betas: (0.9, 0.999)
    eps: 1e-08
    lr: 0.01
    weight_decay: 0
)",Oats
75,76,,,"RNN(
  (rnn): LSTM(8, 3, num_layers=2, batch_first=True, dropout=0.2)
  (fc): Linear(in_features=3, out_features=1, bias=True)
)",BCEWithLogitsLoss(),"Adam (
Parameter Group 0
    amsgrad: False
    betas: (0.9, 0.999)
    eps: 1e-08
    lr: 0.01
    weight_decay: 0
)",Oats
76,77,,,"RNN(
  (rnn): LSTM(8, 3, num_layers=2, batch_first=True, dropout=0.2)
  (fc): Linear(in_features=3, out_features=1, bias=True)
)",BCEWithLogitsLoss(),"Adam (
Parameter Group 0
    amsgrad: False
    betas: (0.9, 0.999)
    eps: 1e-08
    lr: 0.01
    weight_decay: 0
)",Oats
77,78,,,"RNN(
  (rnn): LSTM(8, 3, num_layers=2, batch_first=True, dropout=0.2)
  (fc): Linear(in_features=3, out_features=1, bias=True)
)",BCEWithLogitsLoss(),"Adam (
Parameter Group 0
    amsgrad: False
    betas: (0.9, 0.999)
    eps: 1e-08
    lr: 0.01
    weight_decay: 0
)",Oats
78,79,,,"RNN(
  (rnn): LSTM(8, 3, num_layers=2, batch_first=True, dropout=0.2)
  (fc): Linear(in_features=3, out_features=1, bias=True)
)",BCEWithLogitsLoss(),"Adam (
Parameter Group 0
    amsgrad: False
    betas: (0.9, 0.999)
    eps: 1e-08
    lr: 0.01
    weight_decay: 0
)",Oats
79,80,,,"RNN(
  (rnn): LSTM(8, 3, num_layers=2, batch_first=True, dropout=0.2)
  (fc): Linear(in_features=3, out_features=1, bias=True)
)",BCEWithLogitsLoss(),"Adam (
Parameter Group 0
    amsgrad: False
    betas: (0.9, 0.999)
    eps: 1e-08
    lr: 0.01
    weight_decay: 0
)",Oats
80,81,,,"RNN(
  (rnn): LSTM(8, 3, num_layers=2, batch_first=True, dropout=0.2)
  (fc): Linear(in_features=3, out_features=1, bias=True)
)",BCEWithLogitsLoss(),"Adam (
Parameter Group 0
    amsgrad: False
    betas: (0.9, 0.999)
    eps: 1e-08
    lr: 0.01
    weight_decay: 0
)",Oats
81,82,,,"RNN(
  (rnn): LSTM(8, 3, num_layers=2, batch_first=True, dropout=0.2)
  (fc): Linear(in_features=3, out_features=1, bias=True)
)",BCEWithLogitsLoss(),"Adam (
Parameter Group 0
    amsgrad: False
    betas: (0.9, 0.999)
    eps: 1e-08
    lr: 0.01
    weight_decay: 0
)",Oats
82,83,,,"RNN(
  (rnn): LSTM(8, 3, num_layers=2, batch_first=True, dropout=0.2)
  (fc): Linear(in_features=3, out_features=1, bias=True)
)",BCEWithLogitsLoss(),"Adam (
Parameter Group 0
    amsgrad: False
    betas: (0.9, 0.999)
    eps: 1e-08
    lr: 0.01
    weight_decay: 0
)",Oats
83,84,,,"RNN(
  (rnn): LSTM(8, 3, num_layers=2, batch_first=True, dropout=0.2)
  (fc): Linear(in_features=3, out_features=1, bias=True)
)",BCEWithLogitsLoss(),"Adam (
Parameter Group 0
    amsgrad: False
    betas: (0.9, 0.999)
    eps: 1e-08
    lr: 0.01
    weight_decay: 0
)",Oats
84,85,,,"RNN(
  (rnn): LSTM(8, 3, num_layers=2, batch_first=True, dropout=0.2)
  (fc): Linear(in_features=3, out_features=1, bias=True)
)",BCEWithLogitsLoss(),"Adam (
Parameter Group 0
    amsgrad: False
    betas: (0.9, 0.999)
    eps: 1e-08
    lr: 0.01
    weight_decay: 0
)",Oats
85,86,,,"RNN(
  (rnn): LSTM(8, 3, num_layers=2, batch_first=True, dropout=0.2)
  (fc): Linear(in_features=3, out_features=1, bias=True)
)",BCEWithLogitsLoss(),"Adam (
Parameter Group 0
    amsgrad: False
    betas: (0.9, 0.999)
    eps: 1e-08
    lr: 0.01
    weight_decay: 0
)",Oats
86,87,,,"RNN(
  (rnn): LSTM(8, 3, num_layers=2, batch_first=True, dropout=0.2)
  (fc): Linear(in_features=3, out_features=1, bias=True)
)",BCEWithLogitsLoss(),"Adam (
Parameter Group 0
    amsgrad: False
    betas: (0.9, 0.999)
    eps: 1e-08
    lr: 0.01
    weight_decay: 0
)",Oats
87,88,,,"RNN(
  (rnn): LSTM(8, 3, num_layers=2, batch_first=True, dropout=0.2)
  (fc): Linear(in_features=3, out_features=1, bias=True)
)",BCEWithLogitsLoss(),"Adam (
Parameter Group 0
    amsgrad: False
    betas: (0.9, 0.999)
    eps: 1e-08
    lr: 0.01
    weight_decay: 0
)",Oats
88,89,,,"RNN(
  (rnn): LSTM(8, 3, num_layers=2, batch_first=True, dropout=0.2)
  (fc): Linear(in_features=3, out_features=1, bias=True)
)",BCEWithLogitsLoss(),"Adam (
Parameter Group 0
    amsgrad: False
    betas: (0.9, 0.999)
    eps: 1e-08
    lr: 0.01
    weight_decay: 0
)",Oats
89,90,,,"RNN(
  (rnn): LSTM(8, 3, num_layers=2, batch_first=True, dropout=0.2)
  (fc): Linear(in_features=3, out_features=1, bias=True)
)",BCEWithLogitsLoss(),"Adam (
Parameter Group 0
    amsgrad: False
    betas: (0.9, 0.999)
    eps: 1e-08
    lr: 0.01
    weight_decay: 0
)",Oats
90,91,,,"RNN(
  (rnn): LSTM(8, 3, num_layers=2, batch_first=True, dropout=0.2)
  (fc): Linear(in_features=3, out_features=1, bias=True)
)",BCEWithLogitsLoss(),"Adam (
Parameter Group 0
    amsgrad: False
    betas: (0.9, 0.999)
    eps: 1e-08
    lr: 0.01
    weight_decay: 0
)",Oats
91,92,,,"RNN(
  (rnn): LSTM(8, 3, num_layers=2, batch_first=True, dropout=0.2)
  (fc): Linear(in_features=3, out_features=1, bias=True)
)",BCEWithLogitsLoss(),"Adam (
Parameter Group 0
    amsgrad: False
    betas: (0.9, 0.999)
    eps: 1e-08
    lr: 0.01
    weight_decay: 0
)",Oats
92,93,,,"RNN(
  (rnn): LSTM(8, 3, num_layers=2, batch_first=True, dropout=0.2)
  (fc): Linear(in_features=3, out_features=1, bias=True)
)",BCEWithLogitsLoss(),"Adam (
Parameter Group 0
    amsgrad: False
    betas: (0.9, 0.999)
    eps: 1e-08
    lr: 0.01
    weight_decay: 0
)",Oats
93,94,,,"RNN(
  (rnn): LSTM(8, 3, num_layers=2, batch_first=True, dropout=0.2)
  (fc): Linear(in_features=3, out_features=1, bias=True)
)",BCEWithLogitsLoss(),"Adam (
Parameter Group 0
    amsgrad: False
    betas: (0.9, 0.999)
    eps: 1e-08
    lr: 0.01
    weight_decay: 0
)",Oats
94,95,,,"RNN(
  (rnn): LSTM(8, 3, num_layers=2, batch_first=True, dropout=0.2)
  (fc): Linear(in_features=3, out_features=1, bias=True)
)",BCEWithLogitsLoss(),"Adam (
Parameter Group 0
    amsgrad: False
    betas: (0.9, 0.999)
    eps: 1e-08
    lr: 0.01
    weight_decay: 0
)",Oats
95,96,,,"RNN(
  (rnn): LSTM(8, 3, num_layers=2, batch_first=True, dropout=0.2)
  (fc): Linear(in_features=3, out_features=1, bias=True)
)",BCEWithLogitsLoss(),"Adam (
Parameter Group 0
    amsgrad: False
    betas: (0.9, 0.999)
    eps: 1e-08
    lr: 0.01
    weight_decay: 0
)",Oats
96,97,,,"RNN(
  (rnn): LSTM(8, 3, num_layers=2, batch_first=True, dropout=0.2)
  (fc): Linear(in_features=3, out_features=1, bias=True)
)",BCEWithLogitsLoss(),"Adam (
Parameter Group 0
    amsgrad: False
    betas: (0.9, 0.999)
    eps: 1e-08
    lr: 0.01
    weight_decay: 0
)",Oats
97,98,,,"RNN(
  (rnn): LSTM(8, 3, num_layers=2, batch_first=True, dropout=0.2)
  (fc): Linear(in_features=3, out_features=1, bias=True)
)",BCEWithLogitsLoss(),"Adam (
Parameter Group 0
    amsgrad: False
    betas: (0.9, 0.999)
    eps: 1e-08
    lr: 0.01
    weight_decay: 0
)",Oats
98,99,,,"RNN(
  (rnn): LSTM(8, 3, num_layers=2, batch_first=True, dropout=0.2)
  (fc): Linear(in_features=3, out_features=1, bias=True)
)",BCEWithLogitsLoss(),"Adam (
Parameter Group 0
    amsgrad: False
    betas: (0.9, 0.999)
    eps: 1e-08
    lr: 0.01
    weight_decay: 0
)",Oats
99,100,,,"RNN(
  (rnn): LSTM(8, 3, num_layers=2, batch_first=True, dropout=0.2)
  (fc): Linear(in_features=3, out_features=1, bias=True)
)",BCEWithLogitsLoss(),"Adam (
Parameter Group 0
    amsgrad: False
    betas: (0.9, 0.999)
    eps: 1e-08
    lr: 0.01
    weight_decay: 0
)",Oats
100,101,,,"RNN(
  (rnn): LSTM(8, 3, num_layers=2, batch_first=True, dropout=0.2)
  (fc): Linear(in_features=3, out_features=1, bias=True)
)",BCEWithLogitsLoss(),"Adam (
Parameter Group 0
    amsgrad: False
    betas: (0.9, 0.999)
    eps: 1e-08
    lr: 0.01
    weight_decay: 0
)",Oats
101,102,,,"RNN(
  (rnn): LSTM(8, 3, num_layers=2, batch_first=True, dropout=0.2)
  (fc): Linear(in_features=3, out_features=1, bias=True)
)",BCEWithLogitsLoss(),"Adam (
Parameter Group 0
    amsgrad: False
    betas: (0.9, 0.999)
    eps: 1e-08
    lr: 0.01
    weight_decay: 0
)",Oats
102,103,,,"RNN(
  (rnn): LSTM(8, 3, num_layers=2, batch_first=True, dropout=0.2)
  (fc): Linear(in_features=3, out_features=1, bias=True)
)",BCEWithLogitsLoss(),"Adam (
Parameter Group 0
    amsgrad: False
    betas: (0.9, 0.999)
    eps: 1e-08
    lr: 0.01
    weight_decay: 0
)",Oats
103,104,,,"RNN(
  (rnn): LSTM(8, 3, num_layers=2, batch_first=True, dropout=0.2)
  (fc): Linear(in_features=3, out_features=1, bias=True)
)",BCEWithLogitsLoss(),"Adam (
Parameter Group 0
    amsgrad: False
    betas: (0.9, 0.999)
    eps: 1e-08
    lr: 0.01
    weight_decay: 0
)",Oats
104,105,,,"RNN(
  (rnn): LSTM(8, 3, num_layers=2, batch_first=True, dropout=0.2)
  (fc): Linear(in_features=3, out_features=1, bias=True)
)",BCEWithLogitsLoss(),"Adam (
Parameter Group 0
    amsgrad: False
    betas: (0.9, 0.999)
    eps: 1e-08
    lr: 0.01
    weight_decay: 0
)",Oats
105,106,,,"RNN(
  (rnn): LSTM(8, 3, num_layers=2, batch_first=True, dropout=0.2)
  (fc): Linear(in_features=3, out_features=1, bias=True)
)",BCEWithLogitsLoss(),"Adam (
Parameter Group 0
    amsgrad: False
    betas: (0.9, 0.999)
    eps: 1e-08
    lr: 0.01
    weight_decay: 0
)",Oats
106,107,,,"RNN(
  (rnn): LSTM(8, 3, num_layers=2, batch_first=True, dropout=0.2)
  (fc): Linear(in_features=3, out_features=1, bias=True)
)",BCEWithLogitsLoss(),"Adam (
Parameter Group 0
    amsgrad: False
    betas: (0.9, 0.999)
    eps: 1e-08
    lr: 0.01
    weight_decay: 0
)",Oats
107,108,,,"RNN(
  (rnn): LSTM(8, 3, num_layers=2, batch_first=True, dropout=0.2)
  (fc): Linear(in_features=3, out_features=1, bias=True)
)",BCEWithLogitsLoss(),"Adam (
Parameter Group 0
    amsgrad: False
    betas: (0.9, 0.999)
    eps: 1e-08
    lr: 0.01
    weight_decay: 0
)",Oats
108,109,,,"RNN(
  (rnn): LSTM(8, 3, num_layers=2, batch_first=True, dropout=0.2)
  (fc): Linear(in_features=3, out_features=1, bias=True)
)",BCEWithLogitsLoss(),"Adam (
Parameter Group 0
    amsgrad: False
    betas: (0.9, 0.999)
    eps: 1e-08
    lr: 0.01
    weight_decay: 0
)",Oats
109,110,,,"RNN(
  (rnn): LSTM(8, 3, num_layers=2, batch_first=True, dropout=0.2)
  (fc): Linear(in_features=3, out_features=1, bias=True)
)",BCEWithLogitsLoss(),"Adam (
Parameter Group 0
    amsgrad: False
    betas: (0.9, 0.999)
    eps: 1e-08
    lr: 0.01
    weight_decay: 0
)",Oats
110,111,,,"RNN(
  (rnn): LSTM(8, 3, num_layers=2, batch_first=True, dropout=0.2)
  (fc): Linear(in_features=3, out_features=1, bias=True)
)",BCEWithLogitsLoss(),"Adam (
Parameter Group 0
    amsgrad: False
    betas: (0.9, 0.999)
    eps: 1e-08
    lr: 0.01
    weight_decay: 0
)",Oats
111,112,,,"RNN(
  (rnn): LSTM(8, 3, num_layers=2, batch_first=True, dropout=0.2)
  (fc): Linear(in_features=3, out_features=1, bias=True)
)",BCEWithLogitsLoss(),"Adam (
Parameter Group 0
    amsgrad: False
    betas: (0.9, 0.999)
    eps: 1e-08
    lr: 0.01
    weight_decay: 0
)",Oats
112,113,,,"RNN(
  (rnn): LSTM(8, 3, num_layers=2, batch_first=True, dropout=0.2)
  (fc): Linear(in_features=3, out_features=1, bias=True)
)",BCEWithLogitsLoss(),"Adam (
Parameter Group 0
    amsgrad: False
    betas: (0.9, 0.999)
    eps: 1e-08
    lr: 0.01
    weight_decay: 0
)",Oats
113,114,,,"RNN(
  (rnn): LSTM(8, 3, num_layers=2, batch_first=True, dropout=0.2)
  (fc): Linear(in_features=3, out_features=1, bias=True)
)",BCEWithLogitsLoss(),"Adam (
Parameter Group 0
    amsgrad: False
    betas: (0.9, 0.999)
    eps: 1e-08
    lr: 0.01
    weight_decay: 0
)",Oats
114,115,,,"RNN(
  (rnn): LSTM(8, 3, num_layers=2, batch_first=True, dropout=0.2)
  (fc): Linear(in_features=3, out_features=1, bias=True)
)",BCEWithLogitsLoss(),"Adam (
Parameter Group 0
    amsgrad: False
    betas: (0.9, 0.999)
    eps: 1e-08
    lr: 0.01
    weight_decay: 0
)",Oats
115,116,,,"RNN(
  (rnn): LSTM(8, 3, num_layers=2, batch_first=True, dropout=0.2)
  (fc): Linear(in_features=3, out_features=1, bias=True)
)",BCEWithLogitsLoss(),"Adam (
Parameter Group 0
    amsgrad: False
    betas: (0.9, 0.999)
    eps: 1e-08
    lr: 0.01
    weight_decay: 0
)",Oats
116,117,,,"RNN(
  (rnn): LSTM(8, 3, num_layers=2, batch_first=True, dropout=0.2)
  (fc): Linear(in_features=3, out_features=1, bias=True)
)",BCEWithLogitsLoss(),"Adam (
Parameter Group 0
    amsgrad: False
    betas: (0.9, 0.999)
    eps: 1e-08
    lr: 0.01
    weight_decay: 0
)",Oats
117,118,,,"RNN(
  (rnn): LSTM(8, 3, num_layers=2, batch_first=True, dropout=0.2)
  (fc): Linear(in_features=3, out_features=1, bias=True)
)",BCEWithLogitsLoss(),"Adam (
Parameter Group 0
    amsgrad: False
    betas: (0.9, 0.999)
    eps: 1e-08
    lr: 0.01
    weight_decay: 0
)",Oats
118,119,,,"RNN(
  (rnn): LSTM(8, 3, num_layers=2, batch_first=True, dropout=0.2)
  (fc): Linear(in_features=3, out_features=1, bias=True)
)",BCEWithLogitsLoss(),"Adam (
Parameter Group 0
    amsgrad: False
    betas: (0.9, 0.999)
    eps: 1e-08
    lr: 0.01
    weight_decay: 0
)",Oats
119,120,,,"RNN(
  (rnn): LSTM(8, 3, num_layers=2, batch_first=True, dropout=0.2)
  (fc): Linear(in_features=3, out_features=1, bias=True)
)",BCEWithLogitsLoss(),"Adam (
Parameter Group 0
    amsgrad: False
    betas: (0.9, 0.999)
    eps: 1e-08
    lr: 0.01
    weight_decay: 0
)",Oats
120,121,,,"RNN(
  (rnn): LSTM(8, 3, num_layers=2, batch_first=True, dropout=0.2)
  (fc): Linear(in_features=3, out_features=1, bias=True)
)",BCEWithLogitsLoss(),"Adam (
Parameter Group 0
    amsgrad: False
    betas: (0.9, 0.999)
    eps: 1e-08
    lr: 0.01
    weight_decay: 0
)",Oats
121,122,,,"RNN(
  (rnn): LSTM(8, 3, num_layers=2, batch_first=True, dropout=0.2)
  (fc): Linear(in_features=3, out_features=1, bias=True)
)",BCEWithLogitsLoss(),"Adam (
Parameter Group 0
    amsgrad: False
    betas: (0.9, 0.999)
    eps: 1e-08
    lr: 0.01
    weight_decay: 0
)",Oats
122,123,,,"RNN(
  (rnn): LSTM(8, 3, num_layers=2, batch_first=True, dropout=0.2)
  (fc): Linear(in_features=3, out_features=1, bias=True)
)",BCEWithLogitsLoss(),"Adam (
Parameter Group 0
    amsgrad: False
    betas: (0.9, 0.999)
    eps: 1e-08
    lr: 0.01
    weight_decay: 0
)",Oats
123,124,,,"RNN(
  (rnn): LSTM(8, 3, num_layers=2, batch_first=True, dropout=0.2)
  (fc): Linear(in_features=3, out_features=1, bias=True)
)",BCEWithLogitsLoss(),"Adam (
Parameter Group 0
    amsgrad: False
    betas: (0.9, 0.999)
    eps: 1e-08
    lr: 0.01
    weight_decay: 0
)",Oats
124,125,,,"RNN(
  (rnn): LSTM(8, 3, num_layers=2, batch_first=True, dropout=0.2)
  (fc): Linear(in_features=3, out_features=1, bias=True)
)",BCEWithLogitsLoss(),"Adam (
Parameter Group 0
    amsgrad: False
    betas: (0.9, 0.999)
    eps: 1e-08
    lr: 0.01
    weight_decay: 0
)",Oats
125,126,,,"RNN(
  (rnn): LSTM(8, 3, num_layers=2, batch_first=True, dropout=0.2)
  (fc): Linear(in_features=3, out_features=1, bias=True)
)",BCEWithLogitsLoss(),"Adam (
Parameter Group 0
    amsgrad: False
    betas: (0.9, 0.999)
    eps: 1e-08
    lr: 0.01
    weight_decay: 0
)",Oats
126,127,,,"RNN(
  (rnn): LSTM(8, 3, num_layers=2, batch_first=True, dropout=0.2)
  (fc): Linear(in_features=3, out_features=1, bias=True)
)",BCEWithLogitsLoss(),"Adam (
Parameter Group 0
    amsgrad: False
    betas: (0.9, 0.999)
    eps: 1e-08
    lr: 0.01
    weight_decay: 0
)",Oats
127,128,,,"RNN(
  (rnn): LSTM(8, 3, num_layers=2, batch_first=True, dropout=0.2)
  (fc): Linear(in_features=3, out_features=1, bias=True)
)",BCEWithLogitsLoss(),"Adam (
Parameter Group 0
    amsgrad: False
    betas: (0.9, 0.999)
    eps: 1e-08
    lr: 0.01
    weight_decay: 0
)",Oats
128,129,,,"RNN(
  (rnn): LSTM(8, 3, num_layers=2, batch_first=True, dropout=0.2)
  (fc): Linear(in_features=3, out_features=1, bias=True)
)",BCEWithLogitsLoss(),"Adam (
Parameter Group 0
    amsgrad: False
    betas: (0.9, 0.999)
    eps: 1e-08
    lr: 0.01
    weight_decay: 0
)",Oats
129,130,,,"RNN(
  (rnn): LSTM(8, 3, num_layers=2, batch_first=True, dropout=0.2)
  (fc): Linear(in_features=3, out_features=1, bias=True)
)",BCEWithLogitsLoss(),"Adam (
Parameter Group 0
    amsgrad: False
    betas: (0.9, 0.999)
    eps: 1e-08
    lr: 0.01
    weight_decay: 0
)",Oats
130,131,,,"RNN(
  (rnn): LSTM(8, 3, num_layers=2, batch_first=True, dropout=0.2)
  (fc): Linear(in_features=3, out_features=1, bias=True)
)",BCEWithLogitsLoss(),"Adam (
Parameter Group 0
    amsgrad: False
    betas: (0.9, 0.999)
    eps: 1e-08
    lr: 0.01
    weight_decay: 0
)",Oats
131,132,,,"RNN(
  (rnn): LSTM(8, 3, num_layers=2, batch_first=True, dropout=0.2)
  (fc): Linear(in_features=3, out_features=1, bias=True)
)",BCEWithLogitsLoss(),"Adam (
Parameter Group 0
    amsgrad: False
    betas: (0.9, 0.999)
    eps: 1e-08
    lr: 0.01
    weight_decay: 0
)",Oats
132,133,,,"RNN(
  (rnn): LSTM(8, 3, num_layers=2, batch_first=True, dropout=0.2)
  (fc): Linear(in_features=3, out_features=1, bias=True)
)",BCEWithLogitsLoss(),"Adam (
Parameter Group 0
    amsgrad: False
    betas: (0.9, 0.999)
    eps: 1e-08
    lr: 0.01
    weight_decay: 0
)",Oats
133,134,,,"RNN(
  (rnn): LSTM(8, 3, num_layers=2, batch_first=True, dropout=0.2)
  (fc): Linear(in_features=3, out_features=1, bias=True)
)",BCEWithLogitsLoss(),"Adam (
Parameter Group 0
    amsgrad: False
    betas: (0.9, 0.999)
    eps: 1e-08
    lr: 0.01
    weight_decay: 0
)",Oats
134,135,,,"RNN(
  (rnn): LSTM(8, 3, num_layers=2, batch_first=True, dropout=0.2)
  (fc): Linear(in_features=3, out_features=1, bias=True)
)",BCEWithLogitsLoss(),"Adam (
Parameter Group 0
    amsgrad: False
    betas: (0.9, 0.999)
    eps: 1e-08
    lr: 0.01
    weight_decay: 0
)",Oats
135,136,,,"RNN(
  (rnn): LSTM(8, 3, num_layers=2, batch_first=True, dropout=0.2)
  (fc): Linear(in_features=3, out_features=1, bias=True)
)",BCEWithLogitsLoss(),"Adam (
Parameter Group 0
    amsgrad: False
    betas: (0.9, 0.999)
    eps: 1e-08
    lr: 0.01
    weight_decay: 0
)",Oats
136,137,,,"RNN(
  (rnn): LSTM(8, 3, num_layers=2, batch_first=True, dropout=0.2)
  (fc): Linear(in_features=3, out_features=1, bias=True)
)",BCEWithLogitsLoss(),"Adam (
Parameter Group 0
    amsgrad: False
    betas: (0.9, 0.999)
    eps: 1e-08
    lr: 0.01
    weight_decay: 0
)",Oats
137,138,,,"RNN(
  (rnn): LSTM(8, 3, num_layers=2, batch_first=True, dropout=0.2)
  (fc): Linear(in_features=3, out_features=1, bias=True)
)",BCEWithLogitsLoss(),"Adam (
Parameter Group 0
    amsgrad: False
    betas: (0.9, 0.999)
    eps: 1e-08
    lr: 0.01
    weight_decay: 0
)",Oats
138,139,,,"RNN(
  (rnn): LSTM(8, 3, num_layers=2, batch_first=True, dropout=0.2)
  (fc): Linear(in_features=3, out_features=1, bias=True)
)",BCEWithLogitsLoss(),"Adam (
Parameter Group 0
    amsgrad: False
    betas: (0.9, 0.999)
    eps: 1e-08
    lr: 0.01
    weight_decay: 0
)",Oats
139,140,,,"RNN(
  (rnn): LSTM(8, 3, num_layers=2, batch_first=True, dropout=0.2)
  (fc): Linear(in_features=3, out_features=1, bias=True)
)",BCEWithLogitsLoss(),"Adam (
Parameter Group 0
    amsgrad: False
    betas: (0.9, 0.999)
    eps: 1e-08
    lr: 0.01
    weight_decay: 0
)",Oats
140,141,,,"RNN(
  (rnn): LSTM(8, 3, num_layers=2, batch_first=True, dropout=0.2)
  (fc): Linear(in_features=3, out_features=1, bias=True)
)",BCEWithLogitsLoss(),"Adam (
Parameter Group 0
    amsgrad: False
    betas: (0.9, 0.999)
    eps: 1e-08
    lr: 0.01
    weight_decay: 0
)",Oats
141,142,,,"RNN(
  (rnn): LSTM(8, 3, num_layers=2, batch_first=True, dropout=0.2)
  (fc): Linear(in_features=3, out_features=1, bias=True)
)",BCEWithLogitsLoss(),"Adam (
Parameter Group 0
    amsgrad: False
    betas: (0.9, 0.999)
    eps: 1e-08
    lr: 0.01
    weight_decay: 0
)",Oats
142,143,,,"RNN(
  (rnn): LSTM(8, 3, num_layers=2, batch_first=True, dropout=0.2)
  (fc): Linear(in_features=3, out_features=1, bias=True)
)",BCEWithLogitsLoss(),"Adam (
Parameter Group 0
    amsgrad: False
    betas: (0.9, 0.999)
    eps: 1e-08
    lr: 0.01
    weight_decay: 0
)",Oats
143,144,,,"RNN(
  (rnn): LSTM(8, 3, num_layers=2, batch_first=True, dropout=0.2)
  (fc): Linear(in_features=3, out_features=1, bias=True)
)",BCEWithLogitsLoss(),"Adam (
Parameter Group 0
    amsgrad: False
    betas: (0.9, 0.999)
    eps: 1e-08
    lr: 0.01
    weight_decay: 0
)",Oats
144,145,,,"RNN(
  (rnn): LSTM(8, 3, num_layers=2, batch_first=True, dropout=0.2)
  (fc): Linear(in_features=3, out_features=1, bias=True)
)",BCEWithLogitsLoss(),"Adam (
Parameter Group 0
    amsgrad: False
    betas: (0.9, 0.999)
    eps: 1e-08
    lr: 0.01
    weight_decay: 0
)",Oats
145,146,,,"RNN(
  (rnn): LSTM(8, 3, num_layers=2, batch_first=True, dropout=0.2)
  (fc): Linear(in_features=3, out_features=1, bias=True)
)",BCEWithLogitsLoss(),"Adam (
Parameter Group 0
    amsgrad: False
    betas: (0.9, 0.999)
    eps: 1e-08
    lr: 0.01
    weight_decay: 0
)",Oats
146,147,,,"RNN(
  (rnn): LSTM(8, 3, num_layers=2, batch_first=True, dropout=0.2)
  (fc): Linear(in_features=3, out_features=1, bias=True)
)",BCEWithLogitsLoss(),"Adam (
Parameter Group 0
    amsgrad: False
    betas: (0.9, 0.999)
    eps: 1e-08
    lr: 0.01
    weight_decay: 0
)",Oats
147,148,,,"RNN(
  (rnn): LSTM(8, 3, num_layers=2, batch_first=True, dropout=0.2)
  (fc): Linear(in_features=3, out_features=1, bias=True)
)",BCEWithLogitsLoss(),"Adam (
Parameter Group 0
    amsgrad: False
    betas: (0.9, 0.999)
    eps: 1e-08
    lr: 0.01
    weight_decay: 0
)",Oats
148,149,,,"RNN(
  (rnn): LSTM(8, 3, num_layers=2, batch_first=True, dropout=0.2)
  (fc): Linear(in_features=3, out_features=1, bias=True)
)",BCEWithLogitsLoss(),"Adam (
Parameter Group 0
    amsgrad: False
    betas: (0.9, 0.999)
    eps: 1e-08
    lr: 0.01
    weight_decay: 0
)",Oats
149,150,,,"RNN(
  (rnn): LSTM(8, 3, num_layers=2, batch_first=True, dropout=0.2)
  (fc): Linear(in_features=3, out_features=1, bias=True)
)",BCEWithLogitsLoss(),"Adam (
Parameter Group 0
    amsgrad: False
    betas: (0.9, 0.999)
    eps: 1e-08
    lr: 0.01
    weight_decay: 0
)",Oats
150,151,,,"RNN(
  (rnn): LSTM(8, 3, num_layers=2, batch_first=True, dropout=0.2)
  (fc): Linear(in_features=3, out_features=1, bias=True)
)",BCEWithLogitsLoss(),"Adam (
Parameter Group 0
    amsgrad: False
    betas: (0.9, 0.999)
    eps: 1e-08
    lr: 0.01
    weight_decay: 0
)",Oats
151,152,,,"RNN(
  (rnn): LSTM(8, 3, num_layers=2, batch_first=True, dropout=0.2)
  (fc): Linear(in_features=3, out_features=1, bias=True)
)",BCEWithLogitsLoss(),"Adam (
Parameter Group 0
    amsgrad: False
    betas: (0.9, 0.999)
    eps: 1e-08
    lr: 0.01
    weight_decay: 0
)",Oats
152,153,,,"RNN(
  (rnn): LSTM(8, 3, num_layers=2, batch_first=True, dropout=0.2)
  (fc): Linear(in_features=3, out_features=1, bias=True)
)",BCEWithLogitsLoss(),"Adam (
Parameter Group 0
    amsgrad: False
    betas: (0.9, 0.999)
    eps: 1e-08
    lr: 0.01
    weight_decay: 0
)",Oats
153,154,,,"RNN(
  (rnn): LSTM(8, 3, num_layers=2, batch_first=True, dropout=0.2)
  (fc): Linear(in_features=3, out_features=1, bias=True)
)",BCEWithLogitsLoss(),"Adam (
Parameter Group 0
    amsgrad: False
    betas: (0.9, 0.999)
    eps: 1e-08
    lr: 0.01
    weight_decay: 0
)",Oats
154,155,,,"RNN(
  (rnn): LSTM(8, 3, num_layers=2, batch_first=True, dropout=0.2)
  (fc): Linear(in_features=3, out_features=1, bias=True)
)",BCEWithLogitsLoss(),"Adam (
Parameter Group 0
    amsgrad: False
    betas: (0.9, 0.999)
    eps: 1e-08
    lr: 0.01
    weight_decay: 0
)",Oats
155,156,,,"RNN(
  (rnn): LSTM(8, 3, num_layers=2, batch_first=True, dropout=0.2)
  (fc): Linear(in_features=3, out_features=1, bias=True)
)",BCEWithLogitsLoss(),"Adam (
Parameter Group 0
    amsgrad: False
    betas: (0.9, 0.999)
    eps: 1e-08
    lr: 0.01
    weight_decay: 0
)",Oats
156,157,,,"RNN(
  (rnn): LSTM(8, 3, num_layers=2, batch_first=True, dropout=0.2)
  (fc): Linear(in_features=3, out_features=1, bias=True)
)",BCEWithLogitsLoss(),"Adam (
Parameter Group 0
    amsgrad: False
    betas: (0.9, 0.999)
    eps: 1e-08
    lr: 0.01
    weight_decay: 0
)",Oats
157,158,,,"RNN(
  (rnn): LSTM(8, 3, num_layers=2, batch_first=True, dropout=0.2)
  (fc): Linear(in_features=3, out_features=1, bias=True)
)",BCEWithLogitsLoss(),"Adam (
Parameter Group 0
    amsgrad: False
    betas: (0.9, 0.999)
    eps: 1e-08
    lr: 0.01
    weight_decay: 0
)",Oats
158,159,,,"RNN(
  (rnn): LSTM(8, 3, num_layers=2, batch_first=True, dropout=0.2)
  (fc): Linear(in_features=3, out_features=1, bias=True)
)",BCEWithLogitsLoss(),"Adam (
Parameter Group 0
    amsgrad: False
    betas: (0.9, 0.999)
    eps: 1e-08
    lr: 0.01
    weight_decay: 0
)",Oats
159,160,,,"RNN(
  (rnn): LSTM(8, 3, num_layers=2, batch_first=True, dropout=0.2)
  (fc): Linear(in_features=3, out_features=1, bias=True)
)",BCEWithLogitsLoss(),"Adam (
Parameter Group 0
    amsgrad: False
    betas: (0.9, 0.999)
    eps: 1e-08
    lr: 0.01
    weight_decay: 0
)",Oats
160,161,,,"RNN(
  (rnn): LSTM(8, 3, num_layers=2, batch_first=True, dropout=0.2)
  (fc): Linear(in_features=3, out_features=1, bias=True)
)",BCEWithLogitsLoss(),"Adam (
Parameter Group 0
    amsgrad: False
    betas: (0.9, 0.999)
    eps: 1e-08
    lr: 0.01
    weight_decay: 0
)",Oats
161,162,,,"RNN(
  (rnn): LSTM(8, 3, num_layers=2, batch_first=True, dropout=0.2)
  (fc): Linear(in_features=3, out_features=1, bias=True)
)",BCEWithLogitsLoss(),"Adam (
Parameter Group 0
    amsgrad: False
    betas: (0.9, 0.999)
    eps: 1e-08
    lr: 0.01
    weight_decay: 0
)",Oats
162,163,,,"RNN(
  (rnn): LSTM(8, 3, num_layers=2, batch_first=True, dropout=0.2)
  (fc): Linear(in_features=3, out_features=1, bias=True)
)",BCEWithLogitsLoss(),"Adam (
Parameter Group 0
    amsgrad: False
    betas: (0.9, 0.999)
    eps: 1e-08
    lr: 0.01
    weight_decay: 0
)",Oats
163,164,,,"RNN(
  (rnn): LSTM(8, 3, num_layers=2, batch_first=True, dropout=0.2)
  (fc): Linear(in_features=3, out_features=1, bias=True)
)",BCEWithLogitsLoss(),"Adam (
Parameter Group 0
    amsgrad: False
    betas: (0.9, 0.999)
    eps: 1e-08
    lr: 0.01
    weight_decay: 0
)",Oats
164,165,,,"RNN(
  (rnn): LSTM(8, 3, num_layers=2, batch_first=True, dropout=0.2)
  (fc): Linear(in_features=3, out_features=1, bias=True)
)",BCEWithLogitsLoss(),"Adam (
Parameter Group 0
    amsgrad: False
    betas: (0.9, 0.999)
    eps: 1e-08
    lr: 0.01
    weight_decay: 0
)",Oats
165,166,,,"RNN(
  (rnn): LSTM(8, 3, num_layers=2, batch_first=True, dropout=0.2)
  (fc): Linear(in_features=3, out_features=1, bias=True)
)",BCEWithLogitsLoss(),"Adam (
Parameter Group 0
    amsgrad: False
    betas: (0.9, 0.999)
    eps: 1e-08
    lr: 0.01
    weight_decay: 0
)",Oats
166,167,,,"RNN(
  (rnn): LSTM(8, 3, num_layers=2, batch_first=True, dropout=0.2)
  (fc): Linear(in_features=3, out_features=1, bias=True)
)",BCEWithLogitsLoss(),"Adam (
Parameter Group 0
    amsgrad: False
    betas: (0.9, 0.999)
    eps: 1e-08
    lr: 0.01
    weight_decay: 0
)",Oats
167,168,,,"RNN(
  (rnn): LSTM(8, 3, num_layers=2, batch_first=True, dropout=0.2)
  (fc): Linear(in_features=3, out_features=1, bias=True)
)",BCEWithLogitsLoss(),"Adam (
Parameter Group 0
    amsgrad: False
    betas: (0.9, 0.999)
    eps: 1e-08
    lr: 0.01
    weight_decay: 0
)",Oats
168,169,,,"RNN(
  (rnn): LSTM(8, 3, num_layers=2, batch_first=True, dropout=0.2)
  (fc): Linear(in_features=3, out_features=1, bias=True)
)",BCEWithLogitsLoss(),"Adam (
Parameter Group 0
    amsgrad: False
    betas: (0.9, 0.999)
    eps: 1e-08
    lr: 0.01
    weight_decay: 0
)",Oats
169,170,,,"RNN(
  (rnn): LSTM(8, 3, num_layers=2, batch_first=True, dropout=0.2)
  (fc): Linear(in_features=3, out_features=1, bias=True)
)",BCEWithLogitsLoss(),"Adam (
Parameter Group 0
    amsgrad: False
    betas: (0.9, 0.999)
    eps: 1e-08
    lr: 0.01
    weight_decay: 0
)",Oats
170,171,,,"RNN(
  (rnn): LSTM(8, 3, num_layers=2, batch_first=True, dropout=0.2)
  (fc): Linear(in_features=3, out_features=1, bias=True)
)",BCEWithLogitsLoss(),"Adam (
Parameter Group 0
    amsgrad: False
    betas: (0.9, 0.999)
    eps: 1e-08
    lr: 0.01
    weight_decay: 0
)",Oats
171,172,,,"RNN(
  (rnn): LSTM(8, 3, num_layers=2, batch_first=True, dropout=0.2)
  (fc): Linear(in_features=3, out_features=1, bias=True)
)",BCEWithLogitsLoss(),"Adam (
Parameter Group 0
    amsgrad: False
    betas: (0.9, 0.999)
    eps: 1e-08
    lr: 0.01
    weight_decay: 0
)",Oats
172,173,,,"RNN(
  (rnn): LSTM(8, 3, num_layers=2, batch_first=True, dropout=0.2)
  (fc): Linear(in_features=3, out_features=1, bias=True)
)",BCEWithLogitsLoss(),"Adam (
Parameter Group 0
    amsgrad: False
    betas: (0.9, 0.999)
    eps: 1e-08
    lr: 0.01
    weight_decay: 0
)",Oats
173,174,,,"RNN(
  (rnn): LSTM(8, 3, num_layers=2, batch_first=True, dropout=0.2)
  (fc): Linear(in_features=3, out_features=1, bias=True)
)",BCEWithLogitsLoss(),"Adam (
Parameter Group 0
    amsgrad: False
    betas: (0.9, 0.999)
    eps: 1e-08
    lr: 0.01
    weight_decay: 0
)",Oats
174,175,,,"RNN(
  (rnn): LSTM(8, 3, num_layers=2, batch_first=True, dropout=0.2)
  (fc): Linear(in_features=3, out_features=1, bias=True)
)",BCEWithLogitsLoss(),"Adam (
Parameter Group 0
    amsgrad: False
    betas: (0.9, 0.999)
    eps: 1e-08
    lr: 0.01
    weight_decay: 0
)",Oats
175,176,,,"RNN(
  (rnn): LSTM(8, 3, num_layers=2, batch_first=True, dropout=0.2)
  (fc): Linear(in_features=3, out_features=1, bias=True)
)",BCEWithLogitsLoss(),"Adam (
Parameter Group 0
    amsgrad: False
    betas: (0.9, 0.999)
    eps: 1e-08
    lr: 0.01
    weight_decay: 0
)",Oats
176,177,,,"RNN(
  (rnn): LSTM(8, 3, num_layers=2, batch_first=True, dropout=0.2)
  (fc): Linear(in_features=3, out_features=1, bias=True)
)",BCEWithLogitsLoss(),"Adam (
Parameter Group 0
    amsgrad: False
    betas: (0.9, 0.999)
    eps: 1e-08
    lr: 0.01
    weight_decay: 0
)",Oats
177,178,,,"RNN(
  (rnn): LSTM(8, 3, num_layers=2, batch_first=True, dropout=0.2)
  (fc): Linear(in_features=3, out_features=1, bias=True)
)",BCEWithLogitsLoss(),"Adam (
Parameter Group 0
    amsgrad: False
    betas: (0.9, 0.999)
    eps: 1e-08
    lr: 0.01
    weight_decay: 0
)",Oats
178,179,,,"RNN(
  (rnn): LSTM(8, 3, num_layers=2, batch_first=True, dropout=0.2)
  (fc): Linear(in_features=3, out_features=1, bias=True)
)",BCEWithLogitsLoss(),"Adam (
Parameter Group 0
    amsgrad: False
    betas: (0.9, 0.999)
    eps: 1e-08
    lr: 0.01
    weight_decay: 0
)",Oats
179,180,,,"RNN(
  (rnn): LSTM(8, 3, num_layers=2, batch_first=True, dropout=0.2)
  (fc): Linear(in_features=3, out_features=1, bias=True)
)",BCEWithLogitsLoss(),"Adam (
Parameter Group 0
    amsgrad: False
    betas: (0.9, 0.999)
    eps: 1e-08
    lr: 0.01
    weight_decay: 0
)",Oats
180,181,,,"RNN(
  (rnn): LSTM(8, 3, num_layers=2, batch_first=True, dropout=0.2)
  (fc): Linear(in_features=3, out_features=1, bias=True)
)",BCEWithLogitsLoss(),"Adam (
Parameter Group 0
    amsgrad: False
    betas: (0.9, 0.999)
    eps: 1e-08
    lr: 0.01
    weight_decay: 0
)",Oats
181,182,,,"RNN(
  (rnn): LSTM(8, 3, num_layers=2, batch_first=True, dropout=0.2)
  (fc): Linear(in_features=3, out_features=1, bias=True)
)",BCEWithLogitsLoss(),"Adam (
Parameter Group 0
    amsgrad: False
    betas: (0.9, 0.999)
    eps: 1e-08
    lr: 0.01
    weight_decay: 0
)",Oats
182,183,,,"RNN(
  (rnn): LSTM(8, 3, num_layers=2, batch_first=True, dropout=0.2)
  (fc): Linear(in_features=3, out_features=1, bias=True)
)",BCEWithLogitsLoss(),"Adam (
Parameter Group 0
    amsgrad: False
    betas: (0.9, 0.999)
    eps: 1e-08
    lr: 0.01
    weight_decay: 0
)",Oats
183,184,,,"RNN(
  (rnn): LSTM(8, 3, num_layers=2, batch_first=True, dropout=0.2)
  (fc): Linear(in_features=3, out_features=1, bias=True)
)",BCEWithLogitsLoss(),"Adam (
Parameter Group 0
    amsgrad: False
    betas: (0.9, 0.999)
    eps: 1e-08
    lr: 0.01
    weight_decay: 0
)",Oats
184,185,,,"RNN(
  (rnn): LSTM(8, 3, num_layers=2, batch_first=True, dropout=0.2)
  (fc): Linear(in_features=3, out_features=1, bias=True)
)",BCEWithLogitsLoss(),"Adam (
Parameter Group 0
    amsgrad: False
    betas: (0.9, 0.999)
    eps: 1e-08
    lr: 0.01
    weight_decay: 0
)",Oats
185,186,,,"RNN(
  (rnn): LSTM(8, 3, num_layers=2, batch_first=True, dropout=0.2)
  (fc): Linear(in_features=3, out_features=1, bias=True)
)",BCEWithLogitsLoss(),"Adam (
Parameter Group 0
    amsgrad: False
    betas: (0.9, 0.999)
    eps: 1e-08
    lr: 0.01
    weight_decay: 0
)",Oats
186,187,,,"RNN(
  (rnn): LSTM(8, 3, num_layers=2, batch_first=True, dropout=0.2)
  (fc): Linear(in_features=3, out_features=1, bias=True)
)",BCEWithLogitsLoss(),"Adam (
Parameter Group 0
    amsgrad: False
    betas: (0.9, 0.999)
    eps: 1e-08
    lr: 0.01
    weight_decay: 0
)",Oats
187,188,,,"RNN(
  (rnn): LSTM(8, 3, num_layers=2, batch_first=True, dropout=0.2)
  (fc): Linear(in_features=3, out_features=1, bias=True)
)",BCEWithLogitsLoss(),"Adam (
Parameter Group 0
    amsgrad: False
    betas: (0.9, 0.999)
    eps: 1e-08
    lr: 0.01
    weight_decay: 0
)",Oats
188,189,,,"RNN(
  (rnn): LSTM(8, 3, num_layers=2, batch_first=True, dropout=0.2)
  (fc): Linear(in_features=3, out_features=1, bias=True)
)",BCEWithLogitsLoss(),"Adam (
Parameter Group 0
    amsgrad: False
    betas: (0.9, 0.999)
    eps: 1e-08
    lr: 0.01
    weight_decay: 0
)",Oats
189,190,,,"RNN(
  (rnn): LSTM(8, 3, num_layers=2, batch_first=True, dropout=0.2)
  (fc): Linear(in_features=3, out_features=1, bias=True)
)",BCEWithLogitsLoss(),"Adam (
Parameter Group 0
    amsgrad: False
    betas: (0.9, 0.999)
    eps: 1e-08
    lr: 0.01
    weight_decay: 0
)",Oats
190,191,,,"RNN(
  (rnn): LSTM(8, 3, num_layers=2, batch_first=True, dropout=0.2)
  (fc): Linear(in_features=3, out_features=1, bias=True)
)",BCEWithLogitsLoss(),"Adam (
Parameter Group 0
    amsgrad: False
    betas: (0.9, 0.999)
    eps: 1e-08
    lr: 0.01
    weight_decay: 0
)",Oats
191,192,,,"RNN(
  (rnn): LSTM(8, 3, num_layers=2, batch_first=True, dropout=0.2)
  (fc): Linear(in_features=3, out_features=1, bias=True)
)",BCEWithLogitsLoss(),"Adam (
Parameter Group 0
    amsgrad: False
    betas: (0.9, 0.999)
    eps: 1e-08
    lr: 0.01
    weight_decay: 0
)",Oats
192,193,,,"RNN(
  (rnn): LSTM(8, 3, num_layers=2, batch_first=True, dropout=0.2)
  (fc): Linear(in_features=3, out_features=1, bias=True)
)",BCEWithLogitsLoss(),"Adam (
Parameter Group 0
    amsgrad: False
    betas: (0.9, 0.999)
    eps: 1e-08
    lr: 0.01
    weight_decay: 0
)",Oats
193,194,,,"RNN(
  (rnn): LSTM(8, 3, num_layers=2, batch_first=True, dropout=0.2)
  (fc): Linear(in_features=3, out_features=1, bias=True)
)",BCEWithLogitsLoss(),"Adam (
Parameter Group 0
    amsgrad: False
    betas: (0.9, 0.999)
    eps: 1e-08
    lr: 0.01
    weight_decay: 0
)",Oats
194,195,,,"RNN(
  (rnn): LSTM(8, 3, num_layers=2, batch_first=True, dropout=0.2)
  (fc): Linear(in_features=3, out_features=1, bias=True)
)",BCEWithLogitsLoss(),"Adam (
Parameter Group 0
    amsgrad: False
    betas: (0.9, 0.999)
    eps: 1e-08
    lr: 0.01
    weight_decay: 0
)",Oats
195,196,,,"RNN(
  (rnn): LSTM(8, 3, num_layers=2, batch_first=True, dropout=0.2)
  (fc): Linear(in_features=3, out_features=1, bias=True)
)",BCEWithLogitsLoss(),"Adam (
Parameter Group 0
    amsgrad: False
    betas: (0.9, 0.999)
    eps: 1e-08
    lr: 0.01
    weight_decay: 0
)",Oats
196,197,,,"RNN(
  (rnn): LSTM(8, 3, num_layers=2, batch_first=True, dropout=0.2)
  (fc): Linear(in_features=3, out_features=1, bias=True)
)",BCEWithLogitsLoss(),"Adam (
Parameter Group 0
    amsgrad: False
    betas: (0.9, 0.999)
    eps: 1e-08
    lr: 0.01
    weight_decay: 0
)",Oats
197,198,,,"RNN(
  (rnn): LSTM(8, 3, num_layers=2, batch_first=True, dropout=0.2)
  (fc): Linear(in_features=3, out_features=1, bias=True)
)",BCEWithLogitsLoss(),"Adam (
Parameter Group 0
    amsgrad: False
    betas: (0.9, 0.999)
    eps: 1e-08
    lr: 0.01
    weight_decay: 0
)",Oats
198,199,,,"RNN(
  (rnn): LSTM(8, 3, num_layers=2, batch_first=True, dropout=0.2)
  (fc): Linear(in_features=3, out_features=1, bias=True)
)",BCEWithLogitsLoss(),"Adam (
Parameter Group 0
    amsgrad: False
    betas: (0.9, 0.999)
    eps: 1e-08
    lr: 0.01
    weight_decay: 0
)",Oats
199,200,,,"RNN(
  (rnn): LSTM(8, 3, num_layers=2, batch_first=True, dropout=0.2)
  (fc): Linear(in_features=3, out_features=1, bias=True)
)",BCEWithLogitsLoss(),"Adam (
Parameter Group 0
    amsgrad: False
    betas: (0.9, 0.999)
    eps: 1e-08
    lr: 0.01
    weight_decay: 0
)",Oats
200,201,,,"RNN(
  (rnn): LSTM(8, 3, num_layers=2, batch_first=True, dropout=0.2)
  (fc): Linear(in_features=3, out_features=1, bias=True)
)",BCEWithLogitsLoss(),"Adam (
Parameter Group 0
    amsgrad: False
    betas: (0.9, 0.999)
    eps: 1e-08
    lr: 0.01
    weight_decay: 0
)",Oats
201,202,,,"RNN(
  (rnn): LSTM(8, 3, num_layers=2, batch_first=True, dropout=0.2)
  (fc): Linear(in_features=3, out_features=1, bias=True)
)",BCEWithLogitsLoss(),"Adam (
Parameter Group 0
    amsgrad: False
    betas: (0.9, 0.999)
    eps: 1e-08
    lr: 0.01
    weight_decay: 0
)",Oats
202,203,,,"RNN(
  (rnn): LSTM(8, 3, num_layers=2, batch_first=True, dropout=0.2)
  (fc): Linear(in_features=3, out_features=1, bias=True)
)",BCEWithLogitsLoss(),"Adam (
Parameter Group 0
    amsgrad: False
    betas: (0.9, 0.999)
    eps: 1e-08
    lr: 0.01
    weight_decay: 0
)",Oats
203,204,,,"RNN(
  (rnn): LSTM(8, 3, num_layers=2, batch_first=True, dropout=0.2)
  (fc): Linear(in_features=3, out_features=1, bias=True)
)",BCEWithLogitsLoss(),"Adam (
Parameter Group 0
    amsgrad: False
    betas: (0.9, 0.999)
    eps: 1e-08
    lr: 0.01
    weight_decay: 0
)",Oats
204,205,,,"RNN(
  (rnn): LSTM(8, 3, num_layers=2, batch_first=True, dropout=0.2)
  (fc): Linear(in_features=3, out_features=1, bias=True)
)",BCEWithLogitsLoss(),"Adam (
Parameter Group 0
    amsgrad: False
    betas: (0.9, 0.999)
    eps: 1e-08
    lr: 0.01
    weight_decay: 0
)",Oats
205,206,,,"RNN(
  (rnn): LSTM(8, 3, num_layers=2, batch_first=True, dropout=0.2)
  (fc): Linear(in_features=3, out_features=1, bias=True)
)",BCEWithLogitsLoss(),"Adam (
Parameter Group 0
    amsgrad: False
    betas: (0.9, 0.999)
    eps: 1e-08
    lr: 0.01
    weight_decay: 0
)",Oats
206,207,,,"RNN(
  (rnn): LSTM(8, 3, num_layers=2, batch_first=True, dropout=0.2)
  (fc): Linear(in_features=3, out_features=1, bias=True)
)",BCEWithLogitsLoss(),"Adam (
Parameter Group 0
    amsgrad: False
    betas: (0.9, 0.999)
    eps: 1e-08
    lr: 0.01
    weight_decay: 0
)",Oats
207,208,,,"RNN(
  (rnn): LSTM(8, 3, num_layers=2, batch_first=True, dropout=0.2)
  (fc): Linear(in_features=3, out_features=1, bias=True)
)",BCEWithLogitsLoss(),"Adam (
Parameter Group 0
    amsgrad: False
    betas: (0.9, 0.999)
    eps: 1e-08
    lr: 0.01
    weight_decay: 0
)",Oats
208,209,,,"RNN(
  (rnn): LSTM(8, 3, num_layers=2, batch_first=True, dropout=0.2)
  (fc): Linear(in_features=3, out_features=1, bias=True)
)",BCEWithLogitsLoss(),"Adam (
Parameter Group 0
    amsgrad: False
    betas: (0.9, 0.999)
    eps: 1e-08
    lr: 0.01
    weight_decay: 0
)",Oats
209,210,,,"RNN(
  (rnn): LSTM(8, 3, num_layers=2, batch_first=True, dropout=0.2)
  (fc): Linear(in_features=3, out_features=1, bias=True)
)",BCEWithLogitsLoss(),"Adam (
Parameter Group 0
    amsgrad: False
    betas: (0.9, 0.999)
    eps: 1e-08
    lr: 0.01
    weight_decay: 0
)",Oats
210,211,,,"RNN(
  (rnn): LSTM(8, 3, num_layers=2, batch_first=True, dropout=0.2)
  (fc): Linear(in_features=3, out_features=1, bias=True)
)",BCEWithLogitsLoss(),"Adam (
Parameter Group 0
    amsgrad: False
    betas: (0.9, 0.999)
    eps: 1e-08
    lr: 0.01
    weight_decay: 0
)",Oats
211,212,,,"RNN(
  (rnn): LSTM(8, 3, num_layers=2, batch_first=True, dropout=0.2)
  (fc): Linear(in_features=3, out_features=1, bias=True)
)",BCEWithLogitsLoss(),"Adam (
Parameter Group 0
    amsgrad: False
    betas: (0.9, 0.999)
    eps: 1e-08
    lr: 0.01
    weight_decay: 0
)",Oats
212,213,,,"RNN(
  (rnn): LSTM(8, 3, num_layers=2, batch_first=True, dropout=0.2)
  (fc): Linear(in_features=3, out_features=1, bias=True)
)",BCEWithLogitsLoss(),"Adam (
Parameter Group 0
    amsgrad: False
    betas: (0.9, 0.999)
    eps: 1e-08
    lr: 0.01
    weight_decay: 0
)",Oats
213,214,,,"RNN(
  (rnn): LSTM(8, 3, num_layers=2, batch_first=True, dropout=0.2)
  (fc): Linear(in_features=3, out_features=1, bias=True)
)",BCEWithLogitsLoss(),"Adam (
Parameter Group 0
    amsgrad: False
    betas: (0.9, 0.999)
    eps: 1e-08
    lr: 0.01
    weight_decay: 0
)",Oats
214,215,,,"RNN(
  (rnn): LSTM(8, 3, num_layers=2, batch_first=True, dropout=0.2)
  (fc): Linear(in_features=3, out_features=1, bias=True)
)",BCEWithLogitsLoss(),"Adam (
Parameter Group 0
    amsgrad: False
    betas: (0.9, 0.999)
    eps: 1e-08
    lr: 0.01
    weight_decay: 0
)",Oats
215,216,,,"RNN(
  (rnn): LSTM(8, 3, num_layers=2, batch_first=True, dropout=0.2)
  (fc): Linear(in_features=3, out_features=1, bias=True)
)",BCEWithLogitsLoss(),"Adam (
Parameter Group 0
    amsgrad: False
    betas: (0.9, 0.999)
    eps: 1e-08
    lr: 0.01
    weight_decay: 0
)",Oats
216,217,,,"RNN(
  (rnn): LSTM(8, 3, num_layers=2, batch_first=True, dropout=0.2)
  (fc): Linear(in_features=3, out_features=1, bias=True)
)",BCEWithLogitsLoss(),"Adam (
Parameter Group 0
    amsgrad: False
    betas: (0.9, 0.999)
    eps: 1e-08
    lr: 0.01
    weight_decay: 0
)",Oats
217,218,,,"RNN(
  (rnn): LSTM(8, 3, num_layers=2, batch_first=True, dropout=0.2)
  (fc): Linear(in_features=3, out_features=1, bias=True)
)",BCEWithLogitsLoss(),"Adam (
Parameter Group 0
    amsgrad: False
    betas: (0.9, 0.999)
    eps: 1e-08
    lr: 0.01
    weight_decay: 0
)",Oats
218,219,,,"RNN(
  (rnn): LSTM(8, 3, num_layers=2, batch_first=True, dropout=0.2)
  (fc): Linear(in_features=3, out_features=1, bias=True)
)",BCEWithLogitsLoss(),"Adam (
Parameter Group 0
    amsgrad: False
    betas: (0.9, 0.999)
    eps: 1e-08
    lr: 0.01
    weight_decay: 0
)",Oats
219,220,,,"RNN(
  (rnn): LSTM(8, 3, num_layers=2, batch_first=True, dropout=0.2)
  (fc): Linear(in_features=3, out_features=1, bias=True)
)",BCEWithLogitsLoss(),"Adam (
Parameter Group 0
    amsgrad: False
    betas: (0.9, 0.999)
    eps: 1e-08
    lr: 0.01
    weight_decay: 0
)",Oats
220,221,,,"RNN(
  (rnn): LSTM(8, 3, num_layers=2, batch_first=True, dropout=0.2)
  (fc): Linear(in_features=3, out_features=1, bias=True)
)",BCEWithLogitsLoss(),"Adam (
Parameter Group 0
    amsgrad: False
    betas: (0.9, 0.999)
    eps: 1e-08
    lr: 0.01
    weight_decay: 0
)",Oats
221,222,,,"RNN(
  (rnn): LSTM(8, 3, num_layers=2, batch_first=True, dropout=0.2)
  (fc): Linear(in_features=3, out_features=1, bias=True)
)",BCEWithLogitsLoss(),"Adam (
Parameter Group 0
    amsgrad: False
    betas: (0.9, 0.999)
    eps: 1e-08
    lr: 0.01
    weight_decay: 0
)",Oats
222,223,,,"RNN(
  (rnn): LSTM(8, 3, num_layers=2, batch_first=True, dropout=0.2)
  (fc): Linear(in_features=3, out_features=1, bias=True)
)",BCEWithLogitsLoss(),"Adam (
Parameter Group 0
    amsgrad: False
    betas: (0.9, 0.999)
    eps: 1e-08
    lr: 0.01
    weight_decay: 0
)",Oats
223,224,,,"RNN(
  (rnn): LSTM(8, 3, num_layers=2, batch_first=True, dropout=0.2)
  (fc): Linear(in_features=3, out_features=1, bias=True)
)",BCEWithLogitsLoss(),"Adam (
Parameter Group 0
    amsgrad: False
    betas: (0.9, 0.999)
    eps: 1e-08
    lr: 0.01
    weight_decay: 0
)",Oats
224,225,,,"RNN(
  (rnn): LSTM(8, 3, num_layers=2, batch_first=True, dropout=0.2)
  (fc): Linear(in_features=3, out_features=1, bias=True)
)",BCEWithLogitsLoss(),"Adam (
Parameter Group 0
    amsgrad: False
    betas: (0.9, 0.999)
    eps: 1e-08
    lr: 0.01
    weight_decay: 0
)",Oats
225,226,,,"RNN(
  (rnn): LSTM(8, 3, num_layers=2, batch_first=True, dropout=0.2)
  (fc): Linear(in_features=3, out_features=1, bias=True)
)",BCEWithLogitsLoss(),"Adam (
Parameter Group 0
    amsgrad: False
    betas: (0.9, 0.999)
    eps: 1e-08
    lr: 0.01
    weight_decay: 0
)",Oats
226,227,,,"RNN(
  (rnn): LSTM(8, 3, num_layers=2, batch_first=True, dropout=0.2)
  (fc): Linear(in_features=3, out_features=1, bias=True)
)",BCEWithLogitsLoss(),"Adam (
Parameter Group 0
    amsgrad: False
    betas: (0.9, 0.999)
    eps: 1e-08
    lr: 0.01
    weight_decay: 0
)",Oats
227,228,,,"RNN(
  (rnn): LSTM(8, 3, num_layers=2, batch_first=True, dropout=0.2)
  (fc): Linear(in_features=3, out_features=1, bias=True)
)",BCEWithLogitsLoss(),"Adam (
Parameter Group 0
    amsgrad: False
    betas: (0.9, 0.999)
    eps: 1e-08
    lr: 0.01
    weight_decay: 0
)",Oats
228,229,,,"RNN(
  (rnn): LSTM(8, 3, num_layers=2, batch_first=True, dropout=0.2)
  (fc): Linear(in_features=3, out_features=1, bias=True)
)",BCEWithLogitsLoss(),"Adam (
Parameter Group 0
    amsgrad: False
    betas: (0.9, 0.999)
    eps: 1e-08
    lr: 0.01
    weight_decay: 0
)",Oats
229,230,,,"RNN(
  (rnn): LSTM(8, 3, num_layers=2, batch_first=True, dropout=0.2)
  (fc): Linear(in_features=3, out_features=1, bias=True)
)",BCEWithLogitsLoss(),"Adam (
Parameter Group 0
    amsgrad: False
    betas: (0.9, 0.999)
    eps: 1e-08
    lr: 0.01
    weight_decay: 0
)",Oats
230,231,,,"RNN(
  (rnn): LSTM(8, 3, num_layers=2, batch_first=True, dropout=0.2)
  (fc): Linear(in_features=3, out_features=1, bias=True)
)",BCEWithLogitsLoss(),"Adam (
Parameter Group 0
    amsgrad: False
    betas: (0.9, 0.999)
    eps: 1e-08
    lr: 0.01
    weight_decay: 0
)",Oats
231,232,,,"RNN(
  (rnn): LSTM(8, 3, num_layers=2, batch_first=True, dropout=0.2)
  (fc): Linear(in_features=3, out_features=1, bias=True)
)",BCEWithLogitsLoss(),"Adam (
Parameter Group 0
    amsgrad: False
    betas: (0.9, 0.999)
    eps: 1e-08
    lr: 0.01
    weight_decay: 0
)",Oats
232,233,,,"RNN(
  (rnn): LSTM(8, 3, num_layers=2, batch_first=True, dropout=0.2)
  (fc): Linear(in_features=3, out_features=1, bias=True)
)",BCEWithLogitsLoss(),"Adam (
Parameter Group 0
    amsgrad: False
    betas: (0.9, 0.999)
    eps: 1e-08
    lr: 0.01
    weight_decay: 0
)",Oats
233,234,,,"RNN(
  (rnn): LSTM(8, 3, num_layers=2, batch_first=True, dropout=0.2)
  (fc): Linear(in_features=3, out_features=1, bias=True)
)",BCEWithLogitsLoss(),"Adam (
Parameter Group 0
    amsgrad: False
    betas: (0.9, 0.999)
    eps: 1e-08
    lr: 0.01
    weight_decay: 0
)",Oats
234,235,,,"RNN(
  (rnn): LSTM(8, 3, num_layers=2, batch_first=True, dropout=0.2)
  (fc): Linear(in_features=3, out_features=1, bias=True)
)",BCEWithLogitsLoss(),"Adam (
Parameter Group 0
    amsgrad: False
    betas: (0.9, 0.999)
    eps: 1e-08
    lr: 0.01
    weight_decay: 0
)",Oats
235,236,,,"RNN(
  (rnn): LSTM(8, 3, num_layers=2, batch_first=True, dropout=0.2)
  (fc): Linear(in_features=3, out_features=1, bias=True)
)",BCEWithLogitsLoss(),"Adam (
Parameter Group 0
    amsgrad: False
    betas: (0.9, 0.999)
    eps: 1e-08
    lr: 0.01
    weight_decay: 0
)",Oats
236,237,,,"RNN(
  (rnn): LSTM(8, 3, num_layers=2, batch_first=True, dropout=0.2)
  (fc): Linear(in_features=3, out_features=1, bias=True)
)",BCEWithLogitsLoss(),"Adam (
Parameter Group 0
    amsgrad: False
    betas: (0.9, 0.999)
    eps: 1e-08
    lr: 0.01
    weight_decay: 0
)",Oats
237,238,,,"RNN(
  (rnn): LSTM(8, 3, num_layers=2, batch_first=True, dropout=0.2)
  (fc): Linear(in_features=3, out_features=1, bias=True)
)",BCEWithLogitsLoss(),"Adam (
Parameter Group 0
    amsgrad: False
    betas: (0.9, 0.999)
    eps: 1e-08
    lr: 0.01
    weight_decay: 0
)",Oats
238,239,,,"RNN(
  (rnn): LSTM(8, 3, num_layers=2, batch_first=True, dropout=0.2)
  (fc): Linear(in_features=3, out_features=1, bias=True)
)",BCEWithLogitsLoss(),"Adam (
Parameter Group 0
    amsgrad: False
    betas: (0.9, 0.999)
    eps: 1e-08
    lr: 0.01
    weight_decay: 0
)",Oats
239,240,,,"RNN(
  (rnn): LSTM(8, 3, num_layers=2, batch_first=True, dropout=0.2)
  (fc): Linear(in_features=3, out_features=1, bias=True)
)",BCEWithLogitsLoss(),"Adam (
Parameter Group 0
    amsgrad: False
    betas: (0.9, 0.999)
    eps: 1e-08
    lr: 0.01
    weight_decay: 0
)",Oats
240,241,,,"RNN(
  (rnn): LSTM(8, 3, num_layers=2, batch_first=True, dropout=0.2)
  (fc): Linear(in_features=3, out_features=1, bias=True)
)",BCEWithLogitsLoss(),"Adam (
Parameter Group 0
    amsgrad: False
    betas: (0.9, 0.999)
    eps: 1e-08
    lr: 0.01
    weight_decay: 0
)",Oats
241,242,,,"RNN(
  (rnn): LSTM(8, 3, num_layers=2, batch_first=True, dropout=0.2)
  (fc): Linear(in_features=3, out_features=1, bias=True)
)",BCEWithLogitsLoss(),"Adam (
Parameter Group 0
    amsgrad: False
    betas: (0.9, 0.999)
    eps: 1e-08
    lr: 0.01
    weight_decay: 0
)",Oats
242,243,,,"RNN(
  (rnn): LSTM(8, 3, num_layers=2, batch_first=True, dropout=0.2)
  (fc): Linear(in_features=3, out_features=1, bias=True)
)",BCEWithLogitsLoss(),"Adam (
Parameter Group 0
    amsgrad: False
    betas: (0.9, 0.999)
    eps: 1e-08
    lr: 0.01
    weight_decay: 0
)",Oats
243,244,,,"RNN(
  (rnn): LSTM(8, 3, num_layers=2, batch_first=True, dropout=0.2)
  (fc): Linear(in_features=3, out_features=1, bias=True)
)",BCEWithLogitsLoss(),"Adam (
Parameter Group 0
    amsgrad: False
    betas: (0.9, 0.999)
    eps: 1e-08
    lr: 0.01
    weight_decay: 0
)",Oats
244,245,,,"RNN(
  (rnn): LSTM(8, 3, num_layers=2, batch_first=True, dropout=0.2)
  (fc): Linear(in_features=3, out_features=1, bias=True)
)",BCEWithLogitsLoss(),"Adam (
Parameter Group 0
    amsgrad: False
    betas: (0.9, 0.999)
    eps: 1e-08
    lr: 0.01
    weight_decay: 0
)",Oats
245,246,,,"RNN(
  (rnn): LSTM(8, 3, num_layers=2, batch_first=True, dropout=0.2)
  (fc): Linear(in_features=3, out_features=1, bias=True)
)",BCEWithLogitsLoss(),"Adam (
Parameter Group 0
    amsgrad: False
    betas: (0.9, 0.999)
    eps: 1e-08
    lr: 0.01
    weight_decay: 0
)",Oats
246,247,,,"RNN(
  (rnn): LSTM(8, 3, num_layers=2, batch_first=True, dropout=0.2)
  (fc): Linear(in_features=3, out_features=1, bias=True)
)",BCEWithLogitsLoss(),"Adam (
Parameter Group 0
    amsgrad: False
    betas: (0.9, 0.999)
    eps: 1e-08
    lr: 0.01
    weight_decay: 0
)",Oats
247,248,,,"RNN(
  (rnn): LSTM(8, 3, num_layers=2, batch_first=True, dropout=0.2)
  (fc): Linear(in_features=3, out_features=1, bias=True)
)",BCEWithLogitsLoss(),"Adam (
Parameter Group 0
    amsgrad: False
    betas: (0.9, 0.999)
    eps: 1e-08
    lr: 0.01
    weight_decay: 0
)",Oats
248,249,,,"RNN(
  (rnn): LSTM(8, 3, num_layers=2, batch_first=True, dropout=0.2)
  (fc): Linear(in_features=3, out_features=1, bias=True)
)",BCEWithLogitsLoss(),"Adam (
Parameter Group 0
    amsgrad: False
    betas: (0.9, 0.999)
    eps: 1e-08
    lr: 0.01
    weight_decay: 0
)",Oats
249,250,,,"RNN(
  (rnn): LSTM(8, 3, num_layers=2, batch_first=True, dropout=0.2)
  (fc): Linear(in_features=3, out_features=1, bias=True)
)",BCEWithLogitsLoss(),"Adam (
Parameter Group 0
    amsgrad: False
    betas: (0.9, 0.999)
    eps: 1e-08
    lr: 0.01
    weight_decay: 0
)",Oats
250,251,,,"RNN(
  (rnn): LSTM(8, 3, num_layers=2, batch_first=True, dropout=0.2)
  (fc): Linear(in_features=3, out_features=1, bias=True)
)",BCEWithLogitsLoss(),"Adam (
Parameter Group 0
    amsgrad: False
    betas: (0.9, 0.999)
    eps: 1e-08
    lr: 0.01
    weight_decay: 0
)",Oats
251,252,,,"RNN(
  (rnn): LSTM(8, 3, num_layers=2, batch_first=True, dropout=0.2)
  (fc): Linear(in_features=3, out_features=1, bias=True)
)",BCEWithLogitsLoss(),"Adam (
Parameter Group 0
    amsgrad: False
    betas: (0.9, 0.999)
    eps: 1e-08
    lr: 0.01
    weight_decay: 0
)",Oats
252,253,,,"RNN(
  (rnn): LSTM(8, 3, num_layers=2, batch_first=True, dropout=0.2)
  (fc): Linear(in_features=3, out_features=1, bias=True)
)",BCEWithLogitsLoss(),"Adam (
Parameter Group 0
    amsgrad: False
    betas: (0.9, 0.999)
    eps: 1e-08
    lr: 0.01
    weight_decay: 0
)",Oats
253,254,,,"RNN(
  (rnn): LSTM(8, 3, num_layers=2, batch_first=True, dropout=0.2)
  (fc): Linear(in_features=3, out_features=1, bias=True)
)",BCEWithLogitsLoss(),"Adam (
Parameter Group 0
    amsgrad: False
    betas: (0.9, 0.999)
    eps: 1e-08
    lr: 0.01
    weight_decay: 0
)",Oats
254,255,,,"RNN(
  (rnn): LSTM(8, 3, num_layers=2, batch_first=True, dropout=0.2)
  (fc): Linear(in_features=3, out_features=1, bias=True)
)",BCEWithLogitsLoss(),"Adam (
Parameter Group 0
    amsgrad: False
    betas: (0.9, 0.999)
    eps: 1e-08
    lr: 0.01
    weight_decay: 0
)",Oats
255,256,,,"RNN(
  (rnn): LSTM(8, 3, num_layers=2, batch_first=True, dropout=0.2)
  (fc): Linear(in_features=3, out_features=1, bias=True)
)",BCEWithLogitsLoss(),"Adam (
Parameter Group 0
    amsgrad: False
    betas: (0.9, 0.999)
    eps: 1e-08
    lr: 0.01
    weight_decay: 0
)",Oats
256,257,,,"RNN(
  (rnn): LSTM(8, 3, num_layers=2, batch_first=True, dropout=0.2)
  (fc): Linear(in_features=3, out_features=1, bias=True)
)",BCEWithLogitsLoss(),"Adam (
Parameter Group 0
    amsgrad: False
    betas: (0.9, 0.999)
    eps: 1e-08
    lr: 0.01
    weight_decay: 0
)",Oats
257,258,,,"RNN(
  (rnn): LSTM(8, 3, num_layers=2, batch_first=True, dropout=0.2)
  (fc): Linear(in_features=3, out_features=1, bias=True)
)",BCEWithLogitsLoss(),"Adam (
Parameter Group 0
    amsgrad: False
    betas: (0.9, 0.999)
    eps: 1e-08
    lr: 0.01
    weight_decay: 0
)",Oats
258,259,,,"RNN(
  (rnn): LSTM(8, 3, num_layers=2, batch_first=True, dropout=0.2)
  (fc): Linear(in_features=3, out_features=1, bias=True)
)",BCEWithLogitsLoss(),"Adam (
Parameter Group 0
    amsgrad: False
    betas: (0.9, 0.999)
    eps: 1e-08
    lr: 0.01
    weight_decay: 0
)",Oats
259,260,,,"RNN(
  (rnn): LSTM(8, 3, num_layers=2, batch_first=True, dropout=0.2)
  (fc): Linear(in_features=3, out_features=1, bias=True)
)",BCEWithLogitsLoss(),"Adam (
Parameter Group 0
    amsgrad: False
    betas: (0.9, 0.999)
    eps: 1e-08
    lr: 0.01
    weight_decay: 0
)",Oats
260,261,,,"RNN(
  (rnn): LSTM(8, 3, num_layers=2, batch_first=True, dropout=0.2)
  (fc): Linear(in_features=3, out_features=1, bias=True)
)",BCEWithLogitsLoss(),"Adam (
Parameter Group 0
    amsgrad: False
    betas: (0.9, 0.999)
    eps: 1e-08
    lr: 0.01
    weight_decay: 0
)",Oats
261,262,,,"RNN(
  (rnn): LSTM(8, 3, num_layers=2, batch_first=True, dropout=0.2)
  (fc): Linear(in_features=3, out_features=1, bias=True)
)",BCEWithLogitsLoss(),"Adam (
Parameter Group 0
    amsgrad: False
    betas: (0.9, 0.999)
    eps: 1e-08
    lr: 0.01
    weight_decay: 0
)",Oats
262,263,,,"RNN(
  (rnn): LSTM(8, 3, num_layers=2, batch_first=True, dropout=0.2)
  (fc): Linear(in_features=3, out_features=1, bias=True)
)",BCEWithLogitsLoss(),"Adam (
Parameter Group 0
    amsgrad: False
    betas: (0.9, 0.999)
    eps: 1e-08
    lr: 0.01
    weight_decay: 0
)",Oats
263,264,,,"RNN(
  (rnn): LSTM(8, 3, num_layers=2, batch_first=True, dropout=0.2)
  (fc): Linear(in_features=3, out_features=1, bias=True)
)",BCEWithLogitsLoss(),"Adam (
Parameter Group 0
    amsgrad: False
    betas: (0.9, 0.999)
    eps: 1e-08
    lr: 0.01
    weight_decay: 0
)",Oats
264,265,,,"RNN(
  (rnn): LSTM(8, 3, num_layers=2, batch_first=True, dropout=0.2)
  (fc): Linear(in_features=3, out_features=1, bias=True)
)",BCEWithLogitsLoss(),"Adam (
Parameter Group 0
    amsgrad: False
    betas: (0.9, 0.999)
    eps: 1e-08
    lr: 0.01
    weight_decay: 0
)",Oats
265,266,,,"RNN(
  (rnn): LSTM(8, 3, num_layers=2, batch_first=True, dropout=0.2)
  (fc): Linear(in_features=3, out_features=1, bias=True)
)",BCEWithLogitsLoss(),"Adam (
Parameter Group 0
    amsgrad: False
    betas: (0.9, 0.999)
    eps: 1e-08
    lr: 0.01
    weight_decay: 0
)",Oats
266,267,,,"RNN(
  (rnn): LSTM(8, 3, num_layers=2, batch_first=True, dropout=0.2)
  (fc): Linear(in_features=3, out_features=1, bias=True)
)",BCEWithLogitsLoss(),"Adam (
Parameter Group 0
    amsgrad: False
    betas: (0.9, 0.999)
    eps: 1e-08
    lr: 0.01
    weight_decay: 0
)",Oats
267,268,,,"RNN(
  (rnn): LSTM(8, 3, num_layers=2, batch_first=True, dropout=0.2)
  (fc): Linear(in_features=3, out_features=1, bias=True)
)",BCEWithLogitsLoss(),"Adam (
Parameter Group 0
    amsgrad: False
    betas: (0.9, 0.999)
    eps: 1e-08
    lr: 0.01
    weight_decay: 0
)",Oats
268,269,,,"RNN(
  (rnn): LSTM(8, 3, num_layers=2, batch_first=True, dropout=0.2)
  (fc): Linear(in_features=3, out_features=1, bias=True)
)",BCEWithLogitsLoss(),"Adam (
Parameter Group 0
    amsgrad: False
    betas: (0.9, 0.999)
    eps: 1e-08
    lr: 0.01
    weight_decay: 0
)",Oats
269,270,,,"RNN(
  (rnn): LSTM(8, 3, num_layers=2, batch_first=True, dropout=0.2)
  (fc): Linear(in_features=3, out_features=1, bias=True)
)",BCEWithLogitsLoss(),"Adam (
Parameter Group 0
    amsgrad: False
    betas: (0.9, 0.999)
    eps: 1e-08
    lr: 0.01
    weight_decay: 0
)",Oats
270,271,,,"RNN(
  (rnn): LSTM(8, 3, num_layers=2, batch_first=True, dropout=0.2)
  (fc): Linear(in_features=3, out_features=1, bias=True)
)",BCEWithLogitsLoss(),"Adam (
Parameter Group 0
    amsgrad: False
    betas: (0.9, 0.999)
    eps: 1e-08
    lr: 0.01
    weight_decay: 0
)",Oats
271,272,,,"RNN(
  (rnn): LSTM(8, 3, num_layers=2, batch_first=True, dropout=0.2)
  (fc): Linear(in_features=3, out_features=1, bias=True)
)",BCEWithLogitsLoss(),"Adam (
Parameter Group 0
    amsgrad: False
    betas: (0.9, 0.999)
    eps: 1e-08
    lr: 0.01
    weight_decay: 0
)",Oats
272,273,,,"RNN(
  (rnn): LSTM(8, 3, num_layers=2, batch_first=True, dropout=0.2)
  (fc): Linear(in_features=3, out_features=1, bias=True)
)",BCEWithLogitsLoss(),"Adam (
Parameter Group 0
    amsgrad: False
    betas: (0.9, 0.999)
    eps: 1e-08
    lr: 0.01
    weight_decay: 0
)",Oats
273,274,,,"RNN(
  (rnn): LSTM(8, 3, num_layers=2, batch_first=True, dropout=0.2)
  (fc): Linear(in_features=3, out_features=1, bias=True)
)",BCEWithLogitsLoss(),"Adam (
Parameter Group 0
    amsgrad: False
    betas: (0.9, 0.999)
    eps: 1e-08
    lr: 0.01
    weight_decay: 0
)",Oats
274,275,,,"RNN(
  (rnn): LSTM(8, 3, num_layers=2, batch_first=True, dropout=0.2)
  (fc): Linear(in_features=3, out_features=1, bias=True)
)",BCEWithLogitsLoss(),"Adam (
Parameter Group 0
    amsgrad: False
    betas: (0.9, 0.999)
    eps: 1e-08
    lr: 0.01
    weight_decay: 0
)",Oats
275,276,,,"RNN(
  (rnn): LSTM(8, 3, num_layers=2, batch_first=True, dropout=0.2)
  (fc): Linear(in_features=3, out_features=1, bias=True)
)",BCEWithLogitsLoss(),"Adam (
Parameter Group 0
    amsgrad: False
    betas: (0.9, 0.999)
    eps: 1e-08
    lr: 0.01
    weight_decay: 0
)",Oats
276,277,,,"RNN(
  (rnn): LSTM(8, 3, num_layers=2, batch_first=True, dropout=0.2)
  (fc): Linear(in_features=3, out_features=1, bias=True)
)",BCEWithLogitsLoss(),"Adam (
Parameter Group 0
    amsgrad: False
    betas: (0.9, 0.999)
    eps: 1e-08
    lr: 0.01
    weight_decay: 0
)",Oats
277,278,,,"RNN(
  (rnn): LSTM(8, 3, num_layers=2, batch_first=True, dropout=0.2)
  (fc): Linear(in_features=3, out_features=1, bias=True)
)",BCEWithLogitsLoss(),"Adam (
Parameter Group 0
    amsgrad: False
    betas: (0.9, 0.999)
    eps: 1e-08
    lr: 0.01
    weight_decay: 0
)",Oats
278,279,,,"RNN(
  (rnn): LSTM(8, 3, num_layers=2, batch_first=True, dropout=0.2)
  (fc): Linear(in_features=3, out_features=1, bias=True)
)",BCEWithLogitsLoss(),"Adam (
Parameter Group 0
    amsgrad: False
    betas: (0.9, 0.999)
    eps: 1e-08
    lr: 0.01
    weight_decay: 0
)",Oats
279,280,,,"RNN(
  (rnn): LSTM(8, 3, num_layers=2, batch_first=True, dropout=0.2)
  (fc): Linear(in_features=3, out_features=1, bias=True)
)",BCEWithLogitsLoss(),"Adam (
Parameter Group 0
    amsgrad: False
    betas: (0.9, 0.999)
    eps: 1e-08
    lr: 0.01
    weight_decay: 0
)",Oats
280,281,,,"RNN(
  (rnn): LSTM(8, 3, num_layers=2, batch_first=True, dropout=0.2)
  (fc): Linear(in_features=3, out_features=1, bias=True)
)",BCEWithLogitsLoss(),"Adam (
Parameter Group 0
    amsgrad: False
    betas: (0.9, 0.999)
    eps: 1e-08
    lr: 0.01
    weight_decay: 0
)",Oats
281,282,,,"RNN(
  (rnn): LSTM(8, 3, num_layers=2, batch_first=True, dropout=0.2)
  (fc): Linear(in_features=3, out_features=1, bias=True)
)",BCEWithLogitsLoss(),"Adam (
Parameter Group 0
    amsgrad: False
    betas: (0.9, 0.999)
    eps: 1e-08
    lr: 0.01
    weight_decay: 0
)",Oats
282,283,,,"RNN(
  (rnn): LSTM(8, 3, num_layers=2, batch_first=True, dropout=0.2)
  (fc): Linear(in_features=3, out_features=1, bias=True)
)",BCEWithLogitsLoss(),"Adam (
Parameter Group 0
    amsgrad: False
    betas: (0.9, 0.999)
    eps: 1e-08
    lr: 0.01
    weight_decay: 0
)",Oats
283,284,,,"RNN(
  (rnn): LSTM(8, 3, num_layers=2, batch_first=True, dropout=0.2)
  (fc): Linear(in_features=3, out_features=1, bias=True)
)",BCEWithLogitsLoss(),"Adam (
Parameter Group 0
    amsgrad: False
    betas: (0.9, 0.999)
    eps: 1e-08
    lr: 0.01
    weight_decay: 0
)",Oats
284,285,,,"RNN(
  (rnn): LSTM(8, 3, num_layers=2, batch_first=True, dropout=0.2)
  (fc): Linear(in_features=3, out_features=1, bias=True)
)",BCEWithLogitsLoss(),"Adam (
Parameter Group 0
    amsgrad: False
    betas: (0.9, 0.999)
    eps: 1e-08
    lr: 0.01
    weight_decay: 0
)",Oats
285,286,,,"RNN(
  (rnn): LSTM(8, 3, num_layers=2, batch_first=True, dropout=0.2)
  (fc): Linear(in_features=3, out_features=1, bias=True)
)",BCEWithLogitsLoss(),"Adam (
Parameter Group 0
    amsgrad: False
    betas: (0.9, 0.999)
    eps: 1e-08
    lr: 0.01
    weight_decay: 0
)",Oats
286,287,,,"RNN(
  (rnn): LSTM(8, 3, num_layers=2, batch_first=True, dropout=0.2)
  (fc): Linear(in_features=3, out_features=1, bias=True)
)",BCEWithLogitsLoss(),"Adam (
Parameter Group 0
    amsgrad: False
    betas: (0.9, 0.999)
    eps: 1e-08
    lr: 0.01
    weight_decay: 0
)",Oats
287,288,,,"RNN(
  (rnn): LSTM(8, 3, num_layers=2, batch_first=True, dropout=0.2)
  (fc): Linear(in_features=3, out_features=1, bias=True)
)",BCEWithLogitsLoss(),"Adam (
Parameter Group 0
    amsgrad: False
    betas: (0.9, 0.999)
    eps: 1e-08
    lr: 0.01
    weight_decay: 0
)",Oats
288,289,,,"RNN(
  (rnn): LSTM(8, 3, num_layers=2, batch_first=True, dropout=0.2)
  (fc): Linear(in_features=3, out_features=1, bias=True)
)",BCEWithLogitsLoss(),"Adam (
Parameter Group 0
    amsgrad: False
    betas: (0.9, 0.999)
    eps: 1e-08
    lr: 0.01
    weight_decay: 0
)",Oats
289,290,,,"RNN(
  (rnn): LSTM(8, 3, num_layers=2, batch_first=True, dropout=0.2)
  (fc): Linear(in_features=3, out_features=1, bias=True)
)",BCEWithLogitsLoss(),"Adam (
Parameter Group 0
    amsgrad: False
    betas: (0.9, 0.999)
    eps: 1e-08
    lr: 0.01
    weight_decay: 0
)",Oats
290,291,,,"RNN(
  (rnn): LSTM(8, 3, num_layers=2, batch_first=True, dropout=0.2)
  (fc): Linear(in_features=3, out_features=1, bias=True)
)",BCEWithLogitsLoss(),"Adam (
Parameter Group 0
    amsgrad: False
    betas: (0.9, 0.999)
    eps: 1e-08
    lr: 0.01
    weight_decay: 0
)",Oats
291,292,,,"RNN(
  (rnn): LSTM(8, 3, num_layers=2, batch_first=True, dropout=0.2)
  (fc): Linear(in_features=3, out_features=1, bias=True)
)",BCEWithLogitsLoss(),"Adam (
Parameter Group 0
    amsgrad: False
    betas: (0.9, 0.999)
    eps: 1e-08
    lr: 0.01
    weight_decay: 0
)",Oats
292,293,,,"RNN(
  (rnn): LSTM(8, 3, num_layers=2, batch_first=True, dropout=0.2)
  (fc): Linear(in_features=3, out_features=1, bias=True)
)",BCEWithLogitsLoss(),"Adam (
Parameter Group 0
    amsgrad: False
    betas: (0.9, 0.999)
    eps: 1e-08
    lr: 0.01
    weight_decay: 0
)",Oats
293,294,,,"RNN(
  (rnn): LSTM(8, 3, num_layers=2, batch_first=True, dropout=0.2)
  (fc): Linear(in_features=3, out_features=1, bias=True)
)",BCEWithLogitsLoss(),"Adam (
Parameter Group 0
    amsgrad: False
    betas: (0.9, 0.999)
    eps: 1e-08
    lr: 0.01
    weight_decay: 0
)",Oats
294,295,,,"RNN(
  (rnn): LSTM(8, 3, num_layers=2, batch_first=True, dropout=0.2)
  (fc): Linear(in_features=3, out_features=1, bias=True)
)",BCEWithLogitsLoss(),"Adam (
Parameter Group 0
    amsgrad: False
    betas: (0.9, 0.999)
    eps: 1e-08
    lr: 0.01
    weight_decay: 0
)",Oats
295,296,,,"RNN(
  (rnn): LSTM(8, 3, num_layers=2, batch_first=True, dropout=0.2)
  (fc): Linear(in_features=3, out_features=1, bias=True)
)",BCEWithLogitsLoss(),"Adam (
Parameter Group 0
    amsgrad: False
    betas: (0.9, 0.999)
    eps: 1e-08
    lr: 0.01
    weight_decay: 0
)",Oats
296,297,,,"RNN(
  (rnn): LSTM(8, 3, num_layers=2, batch_first=True, dropout=0.2)
  (fc): Linear(in_features=3, out_features=1, bias=True)
)",BCEWithLogitsLoss(),"Adam (
Parameter Group 0
    amsgrad: False
    betas: (0.9, 0.999)
    eps: 1e-08
    lr: 0.01
    weight_decay: 0
)",Oats
297,298,,,"RNN(
  (rnn): LSTM(8, 3, num_layers=2, batch_first=True, dropout=0.2)
  (fc): Linear(in_features=3, out_features=1, bias=True)
)",BCEWithLogitsLoss(),"Adam (
Parameter Group 0
    amsgrad: False
    betas: (0.9, 0.999)
    eps: 1e-08
    lr: 0.01
    weight_decay: 0
)",Oats
298,299,,,"RNN(
  (rnn): LSTM(8, 3, num_layers=2, batch_first=True, dropout=0.2)
  (fc): Linear(in_features=3, out_features=1, bias=True)
)",BCEWithLogitsLoss(),"Adam (
Parameter Group 0
    amsgrad: False
    betas: (0.9, 0.999)
    eps: 1e-08
    lr: 0.01
    weight_decay: 0
)",Oats
299,300,,,"RNN(
  (rnn): LSTM(8, 3, num_layers=2, batch_first=True, dropout=0.2)
  (fc): Linear(in_features=3, out_features=1, bias=True)
)",BCEWithLogitsLoss(),"Adam (
Parameter Group 0
    amsgrad: False
    betas: (0.9, 0.999)
    eps: 1e-08
    lr: 0.01
    weight_decay: 0
)",Oats
